day4/my_gru_model_1.bin (torch, 298391 bytes, 6 tensors)

gru.weight_ih_l0 f4 [384, 57]
0	0xbdbbaa06	-0.09163289
1	0x3f060147	0.523457
2	0xbdf45ffe	-0.119323716
3	0x3cf15d10	0.029463321
4	0xbd7eb523	-0.062184464
5	0x3e135264	0.14386898
6	0xbdcb0051	-0.0991217
7	0x3eb2bfce	0.3491196
8	0xbec0d8da	-0.37665445
9	0x3de80ec7	0.113309436
10	0x3dd5400f	0.10412609
11	0x3f4039c4	0.75088143
12	0xbe2fa167	-0.17151414
13	0xbe22b171	-0.15888001
14	0xbd5b0897	-0.05347499
15	0x3e17d2b7	0.14826475
16	0xbc0afefd	-0.0084836455
17	0x3f24a14e	0.6430863
18	0xbeb3fff7	-0.35156223
19	0xbbcd557c	-0.006266294
20	0xbe371fe7	-0.17883264
21	0x3e8d25ed	0.27567998
22	0xbe1ad864	-0.15121609
23	0xbe613021	-0.21991016
24	0x3da9c346	0.082891986
25	0xbe6a1bbd	-0.22862144
26	0xbe4d7c97	-0.20067059
27	0xbbf06458	-0.0073361807
28	0xbe88ed4f	-0.26743552
29	0xbd5f48a4	-0.054512635
30	0x3cd1f46c	0.025629245
31	0xbde91c00	-0.11382294
32	0x3d1ca34b	0.038241666
33	0xbe08e6bd	-0.1336927
34	0xbebe9ebe	-0.37230486
35	0x3e3d63ec	0.18495148
36	0xbd1a511b	-0.037675004
37	0x3e999bbc	0.30001628
38	0x3dc816a2	0.09769942
39	0xbc368f3f	-0.011142551
40	0xbec4420c	-0.3833164
41	0x3dcc7495	0.09983174
42	0xbe926089	-0.28589275
43	0x3ddb5577	0.107096605
44	0xbda1d3b1	-0.07901705
45	0x3e089ec8	0.1334182
46	0xbe321ce8	-0.1739384
47	0x3d1b9307	0.037982013
48	0x3e4ce29e	0.20008323
49	0x3c875fc1	0.016525151
50	0xbc6d751a	-0.014493251
51	0x3e0dd5aa	0.13851038
52	0x3e24f963	0.16110758
53	0xbd162ff8	-0.03666684
54	0x3d2fd8f1	0.0429315
55	0xbb25a1a0	-0.0025273338
56	0xbd979697	-0.074017696
57	0x3d56b899	0.05242214
58	0xbd9605ec	-0.07325348
59	0xbeec758c	-0.4618343
60	0x3cc9eee0	0.024650037
61	0x3ebfdc07	0.37472555
62	0x3e841f15	0.25804964
63	0xbf249627	-0.64291614
64	0xbe549723	-0.20760779
65	0xbd65ccbb	-0.05610345
66	0x3ebb1692	0.36540657
67	0x3e7f5356	0.24934134
68	0x3e510fc3	0.20416169
69	0x3d19e60f	0.037572917
70	0x3edc3f55	0.43017069
71	0xbec6570b	-0.38738284
72	0xbe079be6	-0.13243064
73	0xbb8a7f86	-0.0042266278
74	0x3d2cf4f5	0.042225797
75	0xbe4fe929	-0.20303787
76	0x3e96655a	0.293742
77	0xbe8f8355	-0.28029886
78	0x3de083f9	0.10962672
79	0x3d161ef9	0.03665063
80	0xbbb2b441	-0.005453617
81	0x3d98bcbd	0.07457874
82	0x3da765af	0.081736915
83	0x3e2c8f1b	0.16851465
84	0x3c245a85	0.010031347
85	0xbe1292ae	-0.14313766
86	0x3a48c64b	0.00076589425
87	0x3e1ac374	0.15113622
88	0x3d35a58a	0.044347323
89	0x3d8ca6a7	0.06867724
90	0x3eec95ef	0.4620814
91	0x3eadd02e	0.3394789
92	0x3c1d51d4	0.009602029
93	0x3e95d176	0.2926137
94	0x3e11012a	0.141606
95	0x3da4b101	0.08041573
96	0xbdb1a8e4	-0.086747915
97	0xbdada02a	-0.084778145
98	0xbdd2fb24	-0.103018075
99	0xbe4e569f	-0.20150231
100	0xbe06fe20	-0.13182878
101	0xbcb88883	-0.022526031
102	0x3e82803f	0.2548847
103	0x3d9ca795	0.07649151
104	0x3ca35bae	0.019941177
105	0x3d4ce7d2	0.05002577
106	0xbd3e05ca	-0.04639224
107	0xbdd9a615	-0.10627381
108	0x3dde0bfa	0.10842128
109	0x3de38e18	0.111110866
110	0x3d8c0895	0.068375744
111	0x3db9b8d9	0.0906846
112	0xbcc99f60	-0.024612129
113	0xbe800266	-0.2500183
114	0x3d167415	0.0367318
115	0x3e4dd45e	0.20100543
116	0xbe69750b	-0.22798555
117	0xbd669074	-0.056290105
118	0xbeeb72f0	-0.45986128
119	0x3dc0f77b	0.09422203
120	0xbe644890	-0.22293305
121	0x3ed06ddb	0.40708813
122	0x3dbaaeeb	0.09115394
123	0xbdc97560	-0.09836841
124	0x3eb0a5ea	0.34501582
125	0xbd7b7913	-0.061394762
126	0xbed04850	-0.4068017
127	0xbe48ef2e	-0.1962249
128	0xbecc8840	-0.399477
129	0xbe876750	-0.2644601
130	0x3c68d54c	0.01421101
131	0xbe508bdb	-0.2036585
132	0xbe9a0f6e	-0.30089897
133	0x3d997c55	0.074944176
134	0xbeb9574b	-0.36199412
135	0x3e79fd38	0.24413002
136	0xbee59663	-0.44841298
137	0xbd59f0a1	-0.053207997
138	0x3e540ef7	0.20708834
139	0xbe9ce6bd	-0.3064479
140	0x3d4970c2	0.0491798
141	0xbbf6405f	-0.007514998
142	0x3dc0a7c4	0.09406999
143	0x3c68450d	0.014176619
144	0x3e11bf69	0.14233173
145	0x3e92bc26	0.2865917
146	0x3b2c8015	0.002632146
147	0x3d8811e9	0.06644041
148	0x3e57738d	0.21040173
149	0xbed231c5	-0.41053596
150	0x3e25a38e	0.16175672
151	0xbebb7110	-0.36609697
152	0xbca0f222	-0.019646708
153	0x3deac844	0.11463979
154	0x3e90cec5	0.28282753
155	0x3d09026f	0.033449586
156	0x3d85d6bb	0.06535097
157	0xbe088b7e	-0.13334462
158	0x3dbce6ed	0.09223733
159	0x3e775d36	0.24156651
160	0x3da50d13	0.08059134
161	0xbf060175	-0.52345973
162	0x3e2195ce	0.15779802
163	0xbdf339cd	-0.11876259
164	0xbe40e939	-0.18838967
165	0xbe981e9b	-0.2971085
166	0x3e6db2de	0.23212764
167	0xbd2747c4	-0.040839925
168	0x3ab2293e	0.0013592613
169	0x3d812073	0.06305017
170	0xbd282078	-0.04104659
171	0xbdd8ce4a	-0.105862215
172	0xbe82ad9d	-0.2552308
173	0x3dfc00cb	0.12304839
174	0x3e15e966	0.14639816
175	0xbea78a76	-0.32722825
176	0xbe7ba0e6	-0.24573097
177	0xbe396c89	-0.18107809
178	0xbda9d8b7	-0.08293288
179	0x3e29feec	0.16601151
180	0x3d998af3	0.074972056
181	0x3eace0c3	0.3376523
182	0x3ea38b6c	0.31942308
183	0xbdd20bab	-0.10256132
184	0xbe354bd7	-0.17704712
185	0xbe106184	-0.140997
186	0xbdd1cb20	-0.10243821
187	0x3e1f6e9b	0.15569536
188	0xbebe4896	-0.37164754
189	0xbe954e9c	-0.29161537
190	0xbc2bc942	-0.010484995
191	0xbcfabc9f	-0.03060752
192	0x3ea5d0e7	0.32385942
193	0xbe3c7ee6	-0.18407783
194	0xbbd1b55d	-0.006399794
195	0xbe1f595a	-0.15561429
196	0xbe211b5e	-0.15733096
197	0x3d6b475a	0.057441093
198	0xbde8e9fd	-0.11372755
199	0x3e5d0682	0.21584514
200	0x3d55bc53	0.052181553
201	0x3e8abda7	0.27097818
202	0x3e842e29	0.25816467
203	0x3d08697a	0.033303715
204	0x3d8be588	0.06830889
205	0x3db4c80e	0.0882722
206	0xbe13cdea	-0.14434019
207	0x3e4cbd4d	0.19994088
208	0x3e0275df	0.12740277
209	0xbdf792cf	-0.120885484
210	0x3ee31332	0.44350582
211	0x3e1451de	0.14484355
212	0xbdc8948e	-0.097939596
213	0x3d81dce9	0.063409634
214	0x3d60583b	0.054771643
215	0x3e96b62d	0.29435864
216	0xbcc74765	-0.024326036
217	0xbcdf5e5f	-0.02726668
218	0xbedf64ba	-0.43631536
219	0x3ec1cdae	0.37852234
220	0x3ddf6d4b	0.10909518
221	0x3e0e422b	0.13892429
222	0xbea1b249	-0.31581333
223	0x3dc33471	0.09531487
224	0xbc8737fc	-0.016506188
225	0xbe175804	-0.14779669
226	0xbd090148	-0.033448488
227	0x3db98c8d	0.09060011
228	0xbe8c2e21	-0.27378944
229	0x3e32ba46	0.1745387
230	0xbe1bbcd7	-0.15208755
231	0x3ec90fc5	0.39269844
232	0xbe64540f	-0.22297691
233	0xbe166918	-0.14688528
234	0x3cea6886	0.028614294
235	0xbddfd54b	-0.10929354
236	0xbd446ae6	-0.04795351
237	0x3e8133ce	0.25234836
238	0x3e6d6cb5	0.23186
239	0xbe55fd64	-0.20897442
240	0x3e6cf384	0.23139769
241	0xbe98d8db	-0.29852948
242	0xbe6936e5	-0.22774847
243	0x3d9fd0a1	0.07803465
244	0xbdfaa375	-0.12238208
245	0x3c518b34	0.012789536
246	0xbd924e04	-0.071437865
247	0x3c87bbde	0.016569074
248	0x3dce161e	0.10062812
249	0xbdc481b2	-0.0959505
250	0x3e4da6cf	0.20083164
251	0x3d39fa40	0.045404673
252	0x3ef5a17f	0.47974774
253	0x3e14a49f	0.14515923
254	0xbe816987	-0.25275823
255	0xbe698933	-0.22806244

gru.weight_hh_l0 f4 [384, 128]
0	0xbd1639a6	-0.03667607
1	0x3e15dd15	0.14635117
2	0x3dd18352	0.102301255
3	0xbd945e27	-0.07244521
4	0xbe3d48aa	-0.1848475
5	0x3baf6f48	0.005353842
6	0xbe48ef3e	-0.19622514
7	0x3edd34bf	0.43204305
8	0xbe81a858	-0.2532375
9	0x3db20a97	0.08693426
10	0xbd54b46c	-0.051929876
11	0x3e590d87	0.21196567
12	0x3d51fed0	0.0512684
13	0x3e2aea0d	0.16690846
14	0x3d927a71	0.0715226
15	0xbcd1b9a4	-0.025601216
16	0xbe2ecd43	-0.17070489
17	0x3e39d715	0.18148454
18	0x3de3a5e2	0.11115624
19	0xbe4f8b84	-0.20268065
20	0x3d064afe	0.032786362
21	0x3bac2880	0.0052538514
22	0xbed09faa	-0.40746814
23	0x3f13c257	0.57718414
24	0xbe9579cd	-0.2919449
25	0x3dc6a312	0.09699072
26	0x3d92dcc0	0.07171011
27	0xbd5cb076	-0.053879224
28	0xbd696ac2	-0.056986578
29	0xbdd85f1a	-0.10565014
30	0x3d9d2b26	0.076742455
31	0x3e682ec1	0.22674085
32	0x3be06ea2	0.006849126
33	0xbd993622	-0.07481028
34	0x3e7c41bb	0.24634449
35	0xbe015b10	-0.12632394
36	0x3db367ac	0.08760008
37	0xbdf79624	-0.12089184
38	0xbe851edf	-0.26000115
39	0xbe511f6e	-0.20422146
40	0xb9059b74	-0.00012741779
41	0x3ea3f5ad	0.32023373
42	0xbdc278df	-0.094957106
43	0xbe188049	-0.14892687
44	0xbe20b817	-0.15695225
45	0x3e49f421	0.19722034
46	0x3e6aac42	0.22917274
47	0xbec0fed9	-0.37694433
48	0xbdb43592	-0.0879928
49	0xbed296ac	-0.4113058
50	0xbe4b6ab3	-0.19864921
51	0x3da7a90d	0.08186541
52	0xbe7a1c2a	-0.24424806
53	0xbef21675	-0.47282758
54	0xbe1731b1	-0.1476505
55	0x3e37ea82	0.17960551
56	0x3d9ec294	0.077519566
57	0xbbd93292	-0.006628343
58	0x3d0baa22	0.0340978
59	0xbeeb3bd3	-0.4594408
60	0x3e82a354	0.25515234
61	0xbd003552	-0.03130085
62	0xbe30ff8f	-0.17284988
63	0x3e9d1010	0.30676317
64	0xbe0906cd	-0.133815
65	0x3e1be951	0.15225722
66	0x3c5679cb	0.013090561
67	0xbe807024	-0.25085557
68	0x3e4a9353	0.19782762
69	0xbe16bcf7	-0.14720522
70	0x3e965b20	0.29366398
71	0xbe9d9f15	-0.30785432
72	0xbe23db1f	-0.16001557
73	0xbe50f437	-0.2040566
74	0xbd5837d5	-0.05278762
75	0xbadbb44a	-0.0016762104
76	0x3e6f2279	0.23352994
77	0x3da56088	0.080750525
78	0xbc8cf35c	-0.017205887
79	0x3ec6b37c	0.3880881
80	0xbdaff04e	-0.08590756
81	0xbd8e0d05	-0.06936077
82	0xbd87c61d	-0.06629584
83	0x3df66120	0.12030244
84	0x3cf18723	0.029483384
85	0x3d083914	0.03325756
86	0x3e1c2bcf	0.15251087
87	0xbd6f460d	-0.058416415
88	0x3ddeb535	0.10874406
89	0x3e16db5a	0.14732113
90	0xbd348a14	-0.044076994
91	0x3e1bc13c	0.15210432
92	0xbeb9f0a7	-0.36316416
93	0x3dc17726	0.09446554
94	0x3d86caff	0.06581687
95	0xbd6bc332	-0.0575592
96	0xbe510dfc	-0.20415491
97	0xba0ff816	-0.0005491985
98	0xbe576ff9	-0.21038808
99	0x3c3a7ecd	0.011382771
100	0x3e014ce1	0.12626983
101	0x3d8fb1c9	0.07016332
102	0xbec06065	-0.37573543
103	0xbd922dc8	-0.07137638
104	0x3e84d8d1	0.25946668
105	0xbdfdfb19	-0.12401409
106	0xbe7a55d5	-0.24446805
107	0x3e9ba946	0.30402583
108	0x3f2679ec	0.6502979
109	0x3bd6eb8a	0.00655884
110	0xbe3fc1d7	-0.18726288
111	0xbe111595	-0.14168389
112	0xbd9e1ac1	-0.07719947
113	0xbe270176	-0.16309151
114	0xbd931a36	-0.07182734
115	0xbe8acf79	-0.27111414
116	0x3f352c05	0.70770293
117	0x3ebf88b7	0.37408993
118	0xbdd716a5	-0.10502366
119	0x3e34b7ba	0.17648211
120	0x3df85675	0.12125865
121	0xbd6aabaf	-0.057292636
122	0xbbc15ce4	-0.005900966
123	0x3cceaac1	0.025227906
124	0xbeae2900	-0.34015656
125	0xbe50b5a9	-0.20381798
126	0x3d6da86c	0.058021948
127	0xbe2e5a31	-0.17026593
128	0xbe38a615	-0.18032105
129	0xbef009c5	-0.46882454
130	0xbda025b4	-0.07819691
131	0x3d5684fd	0.05237292
132	0xbdf371ad	-0.11886916
133	0xbc3dfe52	-0.011596279
134	0x3e925a0a	0.2858432
135	0x3e6730b7	0.22577177
136	0xbeaab7c1	-0.33343318
137	0xbd926407	-0.07147985
138	0x3e36e5be	0.17861077
139	0x3f0609db	0.5235879
140	0x3cb2de0f	0.021834401
141	0x3dff18ca	0.124559
142	0x3e0a388d	0.13498135
143	0x3e08be4e	0.13353845
144	0x3bb08700	0.005387187
145	0x3d2f6ae7	0.04282656
146	0x3e4e913f	0.20172594
147	0x3e2169c1	0.15762998
148	0x3e220b92	0.15824726
149	0x3e23c47a	0.15992919
150	0x3ea8431f	0.3286371
151	0xbda52d7c	-0.08065316
152	0x3e026c60	0.12736654
153	0xbe83cbe7	-0.25741503
154	0xbe064658	-0.13112772
155	0xbd5c8a9c	-0.053843126
156	0xbe829c22	-0.25509745
157	0xbd24122f	-0.040056404
158	0x3d83614c	0.06415042
159	0x3df0642d	0.11737857
160	0xbe476dad	-0.19475432
161	0xbe47f3fa	-0.19526663
162	0x3e34442a	0.17604128
163	0xbc9fb157	-0.019493742
164	0xbea6d86e	-0.32586998
165	0x3ebe5935	0.37177435
166	0x3ef19470	0.4718356
167	0x3e08ec31	0.1337135
168	0x3eb05e1c	0.344468
169	0x3dde2b5e	0.108481154
170	0x3dcabf6d	0.09899793
171	0xbe06f73d	-0.13180251
172	0x3e15da55	0.14634068
173	0x3af965cc	0.001902753
174	0x3d6bc2a0	0.057558656
175	0x3dee0279	0.11621565
176	0x3e403dd0	0.1877358
177	0x3eb22680	0.34794998
178	0xbd59ff05	-0.05322172
179	0x3f0d99d0	0.55312824
180	0xbe48f09b	-0.19623034
181	0xbd35b64c	-0.044363305
182	0xbe08d099	-0.13360824
183	0xbe8a87ef	-0.27056834
184	0xbea9ad50	-0.3314004
185	0xbdad9d92	-0.0847732
186	0xbe483d66	-0.19554672
187	0x3e56bb27	0.2096983
188	0xbe0684e0	-0.13136625
189	0xbe84d8c0	-0.25946617
190	0xbe96a379	-0.29421595
191	0x3d64192d	0.055688072
192	0x3c27b7f2	0.010236727
193	0xbe85adde	-0.26109213
194	0x3d962b97	0.07332533
195	0xbdac4f86	-0.084136054
196	0x3df1c865	0.118058
197	0x3ea63a8c	0.32466543
198	0x3f1889b3	0.5958511
199	0x3b612cb8	0.003435893
200	0xbe000c75	-0.12504752
201	0x3e05df31	0.13073422
202	0x3e3a6877	0.18203913
203	0xbeb2e34d	-0.34939042
204	0xbddec0bd	-0.10876606
205	0x3dcb8fdf	0.099395506
206	0xbe6237d3	-0.22091608
207	0xbe040e02	-0.12895969
208	0xbd7b43d0	-0.061343968
209	0xbc59c0eb	-0.013290624
210	0x3d9603ad	0.0732492
211	0x3e32e1ab	0.17468898
212	0xbd0780c3	-0.03308178
213	0xbeb6a29f	-0.35670945
214	0xbdbe838a	-0.09302433
215	0x3e490976	0.19632515
216	0xbe202d34	-0.15642244
217	0x3e97d75b	0.2965649
218	0x3eaa1a04	0.33222973
219	0x3ee47e15	0.44627443
220	0xbe8b79cc	-0.2724136
221	0x3e5ba583	0.21449856
222	0xbe650d3f	-0.22368334
223	0xbd2da5d4	-0.042394474
224	0xbea1ed27	-0.31626245
225	0xbdc9fef9	-0.09863085
226	0xbe475502	-0.19466022
227	0xbdac4751	-0.0841204
228	0xbe26af38	-0.16277778
229	0x3e18a7c4	0.14907748
230	0x3e396bf1	0.18107583
231	0x3e215789	0.15756048
232	0xbea5eeb9	-0.32408693
233	0x3ef6d183	0.4820672
234	0xbec09ac5	-0.3761808
235	0x3d3f8e8b	0.0467668
236	0x3e9ba33a	0.3039797
237	0x3d500763	0.050788295
238	0x3df5b8a6	0.119981095
239	0xbe87bccb	-0.26511225
240	0x3e02eaf9	0.12784947
241	0xbdc8d0c9	-0.098054476
242	0xbd1fd3bb	-0.03902028
243	0x3daa4053	0.0831305
244	0x3e11a4a3	0.1422296
245	0x3e73797e	0.23776814
246	0x3dfcb00c	0.12338266
247	0xbcfda03f	-0.0309602
248	0xbed80109	-0.4218829
249	0xbea3a51c	-0.31961906
250	0x3e10b78b	0.14132516
251	0x3dc88b0c	0.09792146
252	0x3d316aa1	0.04331458
253	0x3e481ff8	0.19543445
254	0x3cde3140	0.027123094
255	0x3d710b1b	0.05884848

gru.bias_ih_l0 f4 [384]
0	0xbdaece01	-0.08535386
1	0xbdbdbbff	-0.09264373
2	0xbe759f58	-0.23986566
3	0xbe988a9b	-0.29793248
4	0xbe18df85	-0.14929016
5	0xbe84475c	-0.25835693
6	0xbe11533f	-0.14191912
7	0xbe206664	-0.15664059
8	0xbeb65823	-0.35614118
9	0xbe447817	-0.19186436
10	0xbd6566d5	-0.05600627
11	0xbcdfc404	-0.027315147
12	0xbe5289b5	-0.20560344
13	0xbe6c525e	-0.23078296
14	0xbdf5faf5	-0.12010757
15	0xbdd87ec3	-0.10571053
16	0xbd8147a8	-0.063124955
17	0xbee1dd11	-0.44113973
18	0xbd2da1b1	-0.04239053
19	0xbe37cc99	-0.17949142
20	0xbea7751a	-0.3270653
21	0xbed3cd0b	-0.41367373
22	0xbd886adb	-0.06661006
23	0xbe80822d	-0.25099316
24	0x3d0022e4	0.031283274
25	0xbe857811	-0.26068166
26	0xbdf8c9f2	-0.12147893
27	0xbdf53cc1	-0.119744785
28	0xbe5ce008	-0.21569836
29	0xbeb8d55e	-0.36100286
30	0xbe55a68d	-0.20864315
31	0xbe38bc5e	-0.18040606
32	0xbea0c3c8	-0.3139937
33	0xbcab7f5d	-0.020934755
34	0xbe8810a4	-0.26575196
35	0xbe3f94ff	-0.18709181
36	0xbec0572d	-0.3756651
37	0xbe3a351f	-0.18184327
38	0x3c53ea10	0.012934223
39	0xbdfeb0d7	-0.12436073
40	0xbe9f66bf	-0.31133077
41	0xbe92a27c	-0.2863959
42	0xbe6d2b85	-0.23161133
43	0xbe92b3c9	-0.2865279
44	0xbeaa111f	-0.33216187
45	0xbe071489	-0.13191427
46	0xbed97026	-0.42468375
47	0xbd332966	-0.043740653
48	0xbe14eed7	-0.14544235
49	0xbe4f8a9d	-0.2026772
50	0xbdc84e9c	-0.097806185
51	0xbe8b77f2	-0.2723995
52	0xbe2ac064	-0.16674954
53	0xbecad6ae	-0.39616913
54	0xbd11934f	-0.035540875
55	0xbe2f282a	-0.17105165
56	0xbdf93ae3	-0.12169435
57	0xbdb9ee4e	-0.09078656
58	0xbe6a894d	-0.22903939
59	0xbea3b088	-0.3197062
60	0xbe1f548e	-0.15559599
61	0xbe7fb3ab	-0.24970882
62	0xbde2dc75	-0.11077205
63	0xbe77894b	-0.24173467
64	0xbe36ee9f	-0.17864464
65	0xbe1f3276	-0.15546593
66	0xbda3c92c	-0.07997355
67	0xbe808c31	-0.25106958
68	0xbe0552dc	-0.1301989
69	0x3c9cb33c	0.019128434
70	0xbe6ac0b8	-0.22925079
71	0xbf033934	-0.5125916
72	0xbe756f55	-0.23968251
73	0xbe1aa325	-0.15101297
74	0xbdbe46de	-0.092908606
75	0xbe4fbfbf	-0.20287989
76	0xbe4ce0a4	-0.20007569
77	0xbec4b548	-0.38419557
78	0xbe50d5a5	-0.20393999
79	0xbea96d67	-0.3309128
80	0xbead7166	-0.3387558
81	0xbedeb5da	-0.43498117
82	0xbe17a93b	-0.1481065
83	0xbea078f7	-0.3134229
84	0xbe16acb9	-0.14714326
85	0xbe8b3597	-0.27189323
86	0xbe731787	-0.23739444
87	0xbc89d67f	-0.016825913
88	0xbdf398c8	-0.11894375
89	0x3d8ddb8e	0.06926642
90	0xbcedbc90	-0.029020578
91	0xbeb5afe1	-0.35485747
92	0xbc7a79b4	-0.015287805
93	0xbe465d74	-0.19371587
94	0xbe060f28	-0.13091719
95	0xbec2b7e8	-0.38030934
96	0xbe16b472	-0.14717272
97	0xbe8cbcf2	-0.27487904
98	0xbe65a196	-0.22424921
99	0xbdc0f0ff	-0.09420966
100	0xbe2c2221	-0.16809894
101	0xbef1e8cb	-0.4724792
102	0xbe3b005a	-0.18261853
103	0xbe1b390a	-0.15158477
104	0xbe92bffd	-0.286621
105	0xbd429533	-0.04750557
106	0xbdc619d7	-0.09672897
107	0xbe118e83	-0.1421452
108	0xbe2a5518	-0.16634023
109	0xbd6ecad5	-0.058298904
110	0x3d6f1411	0.058368746
111	0xbe4638a8	-0.1935755
112	0xbd71aba7	-0.05900159
113	0xbf183691	-0.5945826
114	0xbed88890	-0.4229169
115	0xbe66c969	-0.2253777
116	0xbe8178ea	-0.25287563
117	0xbee5bf93	-0.44872722
118	0xbe53e919	-0.20694388
119	0xbd8599b9	-0.06523461
120	0xbe060bf7	-0.13090502
121	0xbdaa410e	-0.083131894
122	0xbd5e56a9	-0.054281864
123	0xbead340b	-0.33828768
124	0x3b79b06e	0.0038099545
125	0xbdf7b1b9	-0.12094445
126	0xbe7b6a93	-0.24552374
127	0xbe00ca93	-0.12577276
128	0xbe61b382	-0.22041133
129	0x3ba41d6c	0.00500839
130	0x3e0540a0	0.13012934
131	0xbea8f3cd	-0.32998505
132	0x3e757e01	0.23973848
133	0x3e327a03	0.17429356
134	0x3e82f6d9	0.25578955
135	0xbe9f954d	-0.31168595
136	0x3dc86448	0.09784752
137	0xbe6e234f	-0.23255657
138	0xbe272be5	-0.16325338
139	0x3e5f7841	0.21823217
140	0x3d3eaf75	0.046554048
141	0x3e2d9ce1	0.16954376
142	0xbe17e718	-0.14834249
143	0x3e2eb199	0.17059936
144	0xbc878463	-0.01654262
145	0xbed7d0fa	-0.42151624
146	0x3d8ffd49	0.07030732
147	0x3e68e803	0.22744755
148	0x3e8220a6	0.25415534
149	0x3e7c94eb	0.24666183
150	0x3e1109d4	0.14163905
151	0xbdb4ce31	-0.088283904
152	0xbe59045b	-0.21193068
153	0xbe7a6099	-0.24450912
154	0x3e8d4786	0.2759363
155	0x3e83b43b	0.25723442
156	0xbe1228d6	-0.1427339
157	0x3a9277a4	0.0011174572
158	0x3df4718f	0.11935722
159	0xbe16b085	-0.14715774
160	0x3e640c24	0.22270256
161	0xbe19d6de	-0.15023372
162	0x3df0446b	0.117318
163	0xbdf1e569	-0.11811335
164	0x3e81ccde	0.25351614
165	0xbf09b413	-0.53790396
166	0x3e4a5c25	0.19761713
167	0x3e89e481	0.26932147
168	0x3e832a05	0.25617996
169	0x3d06745e	0.03282582
170	0x3d9253b1	0.07144869
171	0x3e0192d3	0.12653665
172	0x3e8cec07	0.27523825
173	0x3e7677fb	0.24069206
174	0xbe160c51	-0.14653136
175	0xbf19c94a	-0.6007277
176	0x3e74d7ac	0.23910397
177	0xbf26cb82	-0.6515428
178	0x3e09e8a8	0.13467658
179	0xbde62666	-0.11237793
180	0xbdfde5d8	-0.12397355
181	0xbe189fdb	-0.1490473
182	0x3cd8e5e8	0.026476815
183	0x3ec09897	0.37616417
184	0x3c837e69	0.016051488
185	0x3e970b15	0.29500642
186	0x3dfa93e3	0.122352384
187	0xbc72e439	-0.01482492
188	0x3ea19d88	0.315655
189	0x3d2943e9	0.04132453
190	0xbe3e7de5	-0.18602712
191	0x3e9539ab	0.2914556
192	0xbe40ba08	-0.18820965
193	0x3e7b93f4	0.24568158
194	0x3ec3e931	0.38263848
195	0x3db96a53	0.09053483
196	0x3e682a8a	0.22672477
197	0x3bdbd43d	0.0067086504
198	0xbe6f9bab	-0.23399226
199	0xbed99f77	-0.42504475
200	0x3e9bfa51	0.30464414
201	0xbd14a101	-0.036286358
202	0x3eb43d11	0.3520284
203	0x3e35e903	0.17764668
204	0xbdd47ee1	-0.10375763
205	0xbd8746f1	-0.06605328
206	0x3e82a3b2	0.25515515
207	0x3bd8c1d3	0.0066149025
208	0xbebe8a1f	-0.37214753
209	0x3cce600c	0.025192283
210	0xbe5d2b68	-0.2159859
211	0xbd834f60	-0.06411624
212	0xbcde6c6a	-0.027151305
213	0xbdc5b420	-0.09653497
214	0x3e42310e	0.18964025
215	0x3ecad956	0.3961894
216	0xbec0bbd1	-0.37643293
217	0xbe6ae421	-0.22938587
218	0xbe184796	-0.14871058
219	0xbe05e12e	-0.1307418
220	0xbd6856f0	-0.056723535
221	0xbe8795e6	-0.2648155
222	0xbc135f28	-0.008994855
223	0x3e25a8db	0.16177694
224	0xbe9b7e08	-0.30369592
225	0x3e865db4	0.26243365
226	0xbd1750ff	-0.03694248
227	0xbdb385fe	-0.08765791
228	0x3e61dcbb	0.22056858
229	0xbe08053f	-0.13283251
230	0xbe36f584	-0.17867094
231	0x3e1e732e	0.15473625
232	0x3d790caf	0.06080311
233	0x3da7b2ae	0.08188377
234	0x3c50dbbb	0.0127477
235	0x3db8fe97	0.09032934
236	0x3c3b791d	0.01144245
237	0x3e8bb6e5	0.27287975
238	0x3eb09741	0.34490398
239	0x3e7ffd96	0.24999079
240	0x3e58d9c1	0.21176817
241	0x3e0ad6c5	0.1355849
242	0x3d9e3e18	0.07726687
243	0x3c67db0b	0.014151345
244	0xbed4f323	-0.4159175
245	0xbe8d37b6	-0.27581567
246	0x3e4cfafc	0.20017618
247	0x3e27803b	0.1635751
248	0xbd1a9842	-0.03774286
249	0x3e7f82aa	0.24952188
250	0x3cb93746	0.022609364
251	0x3e4fb2f7	0.20283113
252	0xbef9c0ea	-0.48779994
253	0x3e859692	0.2609144
254	0x3eaf8d87	0.34287664
255	0x3e7b2767	0.2452675

gru.bias_hh_l0 f4 [384]
0	0xbe5a79da	-0.21335545
1	0x3c9b0590	0.01892355
2	0xbe9492b4	-0.29018176
3	0xbe9d68bf	-0.30743977
4	0xbe1b96b2	-0.15194204
5	0xbe5cc0e6	-0.2155796
6	0xbdbb0eed	-0.09133706
7	0xbe72d941	-0.23715688
8	0xbed8a3c7	-0.42312452
9	0xbdcc4901	-0.09974862
10	0x3c9eaf13	0.019370591
11	0xbd80ce55	-0.06289355
12	0xbe37cca5	-0.1794916
13	0xbe1ba000	-0.15197754
14	0xbe893c12	-0.26803643
15	0xbda9cbc9	-0.08290822
16	0xbe2f8156	-0.17139181
17	0xbee89b45	-0.4543096
18	0xbe0fae29	-0.1403128
19	0xbdf6b037	-0.12045329
20	0xbe8986c3	-0.26860628
21	0xbf0127d8	-0.5045142
22	0xbdad737d	-0.08469293
23	0xbe840485	-0.25784698
24	0xbd7fb6e4	-0.062430277
25	0xbe45bc81	-0.1931019
26	0xbd4d0de9	-0.050062094
27	0xbe537aa5	-0.20652254
28	0xbdc5c519	-0.09656734
29	0xbea58347	-0.3232672
30	0xbe35782e	-0.17721626
31	0xbd666fc0	-0.056258917
32	0xbe66900f	-0.22515891
33	0xbd938437	-0.07202952
34	0xbe58e70c	-0.21181887
35	0xbde9ab6b	-0.114096485
36	0xbeaf62ab	-0.34254965
37	0xbe4d2f03	-0.20037465
38	0xbd9927a1	-0.07478262
39	0xbe03b208	-0.12860882
40	0xbe9b5e28	-0.30345273
41	0xbe9e7a41	-0.30952647
42	0xbe8a2416	-0.26980656
43	0xbe82ee9e	-0.25572675
44	0xbea249e6	-0.31697005
45	0xbe4c9b1a	-0.19981042
46	0xbe9ad9f8	-0.30244422
47	0xbd837d7b	-0.06420418
48	0xbdd078e4	-0.10179308
49	0xbe8c62c0	-0.2741909
50	0xbe09b647	-0.1344844
51	0xbe820b00	-0.25399017
52	0xbea09d03	-0.3136979
53	0xbeae6986	-0.34064883
54	0xbdeadad4	-0.114675194
55	0xbe0956fb	-0.13412087
56	0xbe81f00e	-0.2537846
57	0xbde21d0b	-0.11040696
58	0xbe3267d6	-0.17422423
59	0xbed7e5c3	-0.42167482
60	0xbd207f60	-0.039183974
61	0xbe0b93e7	-0.13630639
62	0xbd792788	-0.060828716
63	0xbe5d6747	-0.21621428
64	0xbe4de958	-0.20108545
65	0xbda95e32	-0.082699195
66	0xbe3488ca	-0.17630306
67	0xbe57a033	-0.21057205
68	0xbe823588	-0.25431466
69	0x3d01038d	0.031497527
70	0xbe0e45b0	-0.13893771
71	0xbef4ab92	-0.47787148
72	0xbe2d42f5	-0.16920073
73	0xbe61e2bf	-0.22059153
74	0xbd19142a	-0.037372746
75	0xbe6261b8	-0.22107589
76	0xbe08520c	-0.13312548
77	0xbeb62827	-0.3557751
78	0xbe82be09	-0.2553561
79	0xbe77817c	-0.24170488
80	0xbe9684e3	-0.2939826
81	0xbeed161f	-0.4630594
82	0xbdbc2e2f	-0.09188496
83	0xbeb4c8fa	-0.35309583
84	0xba79c855	-0.0009528448
85	0xbe8ce861	-0.2752104
86	0xbe99018e	-0.29884
87	0xbe107ac9	-0.14109339
88	0xbe394344	-0.18092066
89	0x3d3627fe	0.044471733
90	0xbe177197	-0.14789425
91	0xbed7da76	-0.4215886
92	0xbd64be81	-0.05584574
93	0xbe488ff5	-0.19586165
94	0xbe718850	-0.23587155
95	0xbef3146b	-0.47476515
96	0xbe811f4a	-0.25219184
97	0xbe9e3604	-0.30900586
98	0xbeafb90a	-0.3432086
99	0xbe593aeb	-0.21213882
100	0xbe17b5e4	-0.1481548
101	0xbed0cdf3	-0.40782127
102	0xbe48dedd	-0.19616266
103	0xbe220051	-0.15820433
104	0xbe5a9534	-0.21345979
105	0xbe0d0d96	-0.13774714
106	0xbda8b378	-0.08237356
107	0xbe118465	-0.14210661
108	0xbe7229a5	-0.23648699
109	0xbddf74c8	-0.10910946
110	0x3c9a1bd8	0.018812105
111	0xbddc3b88	-0.10753542
112	0xbe3c8622	-0.18410543
113	0xbef9d030	-0.48791647
114	0xbe96800e	-0.29394573
115	0xbe4c96bc	-0.19979376
116	0xbe8857ce	-0.2662949
117	0xbef97be4	-0.48727334
118	0xbe88426b	-0.26613173
119	0xbe5d73f4	-0.21626264
120	0xbe644f9d	-0.22295995
121	0xbce5713b	-0.028008094
122	0xbd9b66cc	-0.07587966
123	0xbe993aa5	-0.29927555
124	0x3d00ab23	0.03141321
125	0xbe41ccc5	-0.1892577
126	0xbe8fc010	-0.2807622
127	0xbe4a93f7	-0.19783007
128	0xbe94eba9	-0.29086044
129	0xbc3765cb	-0.011193703
130	0x3de5833a	0.1120667
131	0xbea19941	-0.31562236
132	0x3e7a3987	0.24436007
133	0x3e90a2dd	0.28249255
134	0x3e52c915	0.20584519
135	0xbedf4f4f	-0.43615195
136	0x3d3dba43	0.04632021
137	0xbe728d55	-0.23686726
138	0xbe85f0dd	-0.26160327
139	0x3ddaf266	0.10690765
140	0x3d9090c9	0.070588656
141	0x3dc48d3f	0.09597253
142	0xbdc853a6	-0.0978158
143	0x3e62dd5f	0.22154759
144	0xbda55d5e	-0.08074449
145	0xbf05dd93	-0.5229122
146	0x3e0d5746	0.13802823
147	0x3e7e18e1	0.24814178
148	0x3ebb2320	0.36550236
149	0x3e03a28f	0.1285498
150	0x3e6868ff	0.22696303
151	0xbd4aa230	-0.04947108
152	0xbe406ab4	-0.18790704
153	0xbe612486	-0.21986589
154	0x3ec3be04	0.38230908
155	0x3e908a36	0.28230447
156	0xbe5992fa	-0.21247473
157	0x3dc74b50	0.097311616
158	0x3dca2bb3	0.09871616
159	0xbe37a6a5	-0.17934664
160	0x3daa41c1	0.08313323
161	0xbe0972a5	-0.1342264
162	0x3d8dbaf8	0.06920427
163	0xbdfc675a	-0.123244
164	0x3e289e6a	0.1646668
165	0xbf0c883b	-0.5489537
166	0x3e23b1b7	0.15985762
167	0x3eca36d4	0.39494956
168	0x3e683b03	0.22678761
169	0x3d8953bb	0.067054234
170	0x3db9c735	0.09071199
171	0x3e107bfb	0.14109795
172	0x3e9c24ec	0.3049692
173	0x3dfefa78	0.12450117
174	0xbe3b9653	-0.18319063
175	0xbf0a5001	-0.54028326
176	0x3e8928cf	0.26788947
177	0xbf1aeaf2	-0.6051475
178	0x3e5cd3d3	0.2156518
179	0xbddec81c	-0.108780116
180	0xbe227405	-0.1586457
181	0xbe39cccf	-0.18144535
182	0xbe003ef0	-0.12524009
183	0x3e9991ab	0.29993948
184	0xbd3087a1	-0.043098096
185	0x3e8fa16a	0.28052837
186	0x3e1919b9	0.14951219
187	0x3d8bef09	0.06832702
188	0x3e82de83	0.25560388
189	0x3d229a6d	0.039698053
190	0xbe231451	-0.15925719
191	0x3e37a329	0.17933334
192	0xbe03feef	-0.12890218
193	0x3ead9915	0.33905855
194	0x3eba5a25	0.363969
195	0x3e4dedf3	0.20110302
196	0x3e79f783	0.24410824
197	0x3cb63b31	0.022245022
198	0xbe82aa79	-0.25520685
199	0xbef32413	-0.4748846
200	0x3e628fb6	0.22125134
201	0x3ce5ee3a	0.028067697
202	0x3e98d9dc	0.29853714
203	0x3e7072de	0.23481318
204	0x3ca2ddd8	0.019881174
205	0xbd1bfcd3	-0.03808291
206	0x3e2cf287	0.16889392
207	0x3d8b1f11	0.06793035
208	0xbf04a66c	-0.5181644
209	0x3d0359f3	0.032068204
210	0xbe6c6b06	-0.23087701
211	0x3b12c3f3	0.0022394627
212	0xbc29d85f	-0.010366528
213	0xbda6f7df	-0.081527464
214	0x3e17e35e	0.14832827
215	0x3ecb9e82	0.3976937
216	0xbe93f7ae	-0.28899902
217	0xbe9a1c3b	-0.30099663
218	0xbe19a277	-0.15003382
219	0xbd7bd739	-0.06148455
220	0xbc3426fd	-0.010995624
221	0xbe7e537a	-0.24836531
222	0x3a963049	0.0011458482
223	0x3e6c06cb	0.23049466
224	0xbed209e5	-0.41023174
225	0x3ebc88ef	0.36823222
226	0xbd8eb27c	-0.06967637
227	0xbd9a5edb	-0.075376235
228	0x3e610ddb	0.21977942
229	0xbd9aeedc	-0.0756509
230	0xbdbcce7a	-0.0921907
231	0x3cffb446	0.03121389
232	0x3de4167e	0.111371025
233	0x3daedcbc	0.085381955
234	0xbdb34533	-0.08753433
235	0x3cecc8f6	0.02890442
236	0x3bfa29ff	0.007634401
237	0x3e491a6a	0.19638982
238	0x3eaf140b	0.3419498
239	0x3e1a631a	0.15076867
240	0x3e00b9f5	0.12570937
241	0x3ce58f97	0.02802257
242	0x3e0d7ef0	0.13817954
243	0xbd2ac9a6	-0.041696213
244	0xbeafe743	-0.34356126
245	0xbe1ed667	-0.15511476
246	0x3def2f6e	0.11678968
247	0x3e6dcdc6	0.23223028
248	0xbe0fea59	-0.1405424
249	0x3ec05fca	0.3757308
250	0xbc5d47d6	-0.013505897
251	0x3e59e117	0.21277271
252	0xbf120227	-0.57034534
253	0x3ea8edc0	0.3299389
254	0x3ea97109	0.3309405
255	0x3e108a6e	0.14115307

linear.weight f4 [18, 128]
0	0x3f3c618a	0.7358633
1	0xbd746f9d	-0.059676755
2	0x3e0bac43	0.13639931
3	0xbe4e8ead	-0.20171614
4	0xbec929b2	-0.39289623
5	0xbdf621ee	-0.1201819
6	0x3ddc6435	0.107613005
7	0xbe50b9d1	-0.20383383
8	0xbe8da336	-0.27663583
9	0xbe76303e	-0.2404184
10	0xbe6620d8	-0.22473466
11	0xbe254720	-0.16140413
12	0xbf0a4fa3	-0.54027766
13	0xbe6dd987	-0.23227511
14	0xbe4b5b2d	-0.19859
15	0x3d402a95	0.04691561
16	0xbcb32912	-0.02187017
17	0xbf3f4968	-0.74721384
18	0x3e8c5944	0.27411854
19	0x3c5edb68	0.013602115
20	0xbe47960c	-0.19490832
21	0x3e1095e9	0.14119686
22	0x3e0848d0	0.13309026
23	0xbed317e7	-0.41229174
24	0x3e165b81	0.14683343
25	0x3d665f2e	0.056243114
26	0x3e5136f0	0.20431113
27	0x3e8a59b2	0.27021557
28	0xbeae4da6	-0.34043616
29	0xbe2d9e10	-0.16954827
30	0xbd2141a2	-0.039369233
31	0xbee11cc4	-0.4396726
32	0xbe334b3e	-0.17509171
33	0xbed65699	-0.41862944
34	0xbf1ace2a	-0.6047083
35	0x3e810aa7	0.2520344
36	0xbe65f8b9	-0.22458161
37	0xbe67400f	-0.2258303
38	0x3e173222	0.14765218
39	0xbe1a9ade	-0.1509814
40	0x3ddfd8f2	0.10930051
41	0xbd4a810c	-0.049439475
42	0x3eb64113	0.35596523
43	0x3e6f72ab	0.23383586
44	0xbee4109d	-0.44543925
45	0xbe623f61	-0.2209449
46	0xbe53eec3	-0.20696549
47	0xbe9d2b51	-0.3069711
48	0xbd46ad04	-0.048504844
49	0xbef260eb	-0.47339568
50	0xbe2f6e8c	-0.17132014
51	0x3e0aed5d	0.1356711
52	0x3e99edc3	0.3006421
53	0xbe4269e5	-0.18985708
54	0x3ea56102	0.32300574
55	0x3e0407f5	0.1289366
56	0xbb3d7d5a	-0.0028913827
57	0xbe1650cc	-0.14679259
58	0x3cbaa931	0.022785755
59	0xbc1632b1	-0.009167359
60	0xbd442024	-0.047882214
61	0xbda86d21	-0.0822394
62	0xbe769e6a	-0.24083868
63	0x3df10ce0	0.11770034
64	0x3e8d4218	0.27589488
65	0xbd88d7d9	-0.06681795
66	0xbe95b886	-0.29242343
67	0x3e3f6b68	0.18693316
68	0x3eb80156	0.3593852
69	0x3e2a00dd	0.16601892
70	0xbd03f702	-0.032217987
71	0x3f192b26	0.59831464
72	0xbe5ff753	-0.2187169
73	0x3e1de342	0.15418723
74	0xbe189c7a	-0.14903441
75	0xbd8d9f99	-0.069152065
76	0xbe6fc055	-0.23413213
77	0x3dd6ad20	0.1048224
78	0x3df60c50	0.12014067
79	0xbf023d5e	-0.5087489
80	0x3f4340ff	0.7627105
81	0x3d0fa185	0.035066146
82	0xbe8ba63a	-0.27275258
83	0xbe12a4de	-0.14320704
84	0xbe1df0de	-0.15423915
85	0xbd90cffc	-0.0707092
86	0x3e27a0c2	0.16369918
87	0xbd7a55b3	-0.061116885
88	0x3ec6466b	0.387256
89	0xbe4d4632	-0.20046309
90	0x3e3ee923	0.18643622
91	0xbe138f2a	-0.14410082
92	0xbd7e6a97	-0.06211337
93	0x3e82f4a0	0.2557726
94	0xbea7f420	-0.3280344
95	0xbe8a614e	-0.27027363
96	0xbda74557	-0.081675224
97	0x3e8232c8	0.25429368
98	0xbdac222c	-0.08404955
99	0xbed1d9d9	-0.40986517
100	0x3e52f9ef	0.20603155
101	0x3d86b414	0.06577316
102	0x3e34c061	0.17651512
103	0x3e4f29e5	0.20230825
104	0xbe38e3ae	-0.18055603
105	0xbd9aa799	-0.07551498
106	0x3df95c9f	0.12175869
107	0xbe6ff29c	-0.23432392
108	0xbf44b824	-0.76843476
109	0x3d8bdd11	0.068292744
110	0xbc5140f1	-0.012771831
111	0xbe2b714a	-0.16742435
112	0x3e2b33d1	0.16718985
113	0x3eadb237	0.3392503
114	0x3ded5075	0.115876116
115	0x3df06e34	0.117397696
116	0xbee98a84	-0.45613492
117	0xbeb51161	-0.35364822
118	0xbe8d3fcd	-0.2758774
119	0x3dae447c	0.08509156
120	0xbeecde04	-0.46263134
121	0x3cfa4ecb	0.03055515
122	0x3ca54db1	0.020178648
123	0x3d8fa7d7	0.07014435
124	0xbeae3f6b	-0.3403276
125	0xbcb45542	-0.02201331
126	0xbe2fc23a	-0.17163935
127	0xbe6f02d5	-0.23340924
128	0xbd263542	-0.040578134
129	0xbda843ff	-0.08216094
130	0x3ece2309	0.40261105
131	0xbdbce64f	-0.092236154
132	0x3d7287ea	0.05921165
133	0x3e8e6c15	0.27816835
134	0xbbec0ec8	-0.0072039105
135	0xba0aaba3	-0.0005289858
136	0x3e623de2	0.22093919
137	0x3dc5f84d	0.096665
138	0xbe36581d	-0.1780705
139	0xbdf46296	-0.11932866
140	0x3d918ede	0.07107328
141	0xbde160b4	-0.11004773
142	0x3d503243	0.050829183
143	0xbe4bf16a	-0.19916311
144	0xbbf5c2c2	-0.0075000236
145	0x3e0d1d19	0.13780631
146	0x3e9fd0e5	0.3121406
147	0x3dd41238	0.103550375
148	0x3ec42f14	0.38317168
149	0xbdbd788d	-0.09251509
150	0xbd4de671	-0.050268594
151	0x3e84fd7f	0.25974652
152	0x3dc6ba07	0.09703451
153	0xbdc0caa1	-0.094136484
154	0xbc8243b7	-0.01590143
155	0x3e17377a	0.14767256
156	0x3ea19c49	0.3156455
157	0x3dfc7be7	0.1232832
158	0xbd98ab03	-0.07454493
159	0x3ed2c23e	0.4116382
160	0x3e80a997	0.25129387
161	0x3db08480	0.08619022
162	0xbea17752	-0.31536347
163	0xbcc072ed	-0.0234923
164	0xbe6abd5b	-0.22923796
165	0xbd6c518c	-0.057694957
166	0x3de21709	0.1103955
167	0x3e205c05	0.15660103
168	0xbd2f58f0	-0.042809427
169	0xbde2fc7b	-0.11083313
170	0x3e3eed51	0.18645217
171	0xbe93fb5c	-0.2890271
172	0x3d94da6e	0.07268225
173	0xbe513dc8	-0.20433724
174	0x3e13bc0d	0.14427204
175	0x3d54f8bf	0.051995035
176	0xbea26fbe	-0.31725878
177	0xbe1e84b3	-0.15480308
178	0x3deb4d2d	0.114893295
179	0xbe39c5bc	-0.18141836
180	0xbed427ac	-0.41436517
181	0x3deca2dc	0.115545005
182	0xbe0e4c9a	-0.13896409
183	0xbd174aca	-0.03693656
184	0xbd00d97d	-0.031457413
185	0x3cb95c31	0.022626968
186	0x3cbed85f	0.023296533
187	0x3ca05a70	0.019574374
188	0xbda92971	-0.082598574
189	0xbccf82be	-0.025330897
190	0x3d3f3879	0.046684716
191	0xbe68b398	-0.2272476
192	0xbcbcfc6e	-0.023069587
193	0x3dfb0309	0.12256438
194	0x3d31044a	0.04321698
195	0xbe22e582	-0.15907863
196	0xbd9c3bec	-0.07628617
197	0xbe921fe9	-0.2853997
198	0x3d301812	0.042991705
199	0xbe84242e	-0.25808853
200	0x3c6063f4	0.013695706
201	0x3da623d6	0.08112304
202	0xbb1a2d12	-0.00235254
203	0x3cae1fb5	0.021255353
204	0x3e5f3393	0.21797018
205	0x3e410fdc	0.18853706
206	0xbdc3b76e	-0.09556471
207	0xbe1b7165	-0.15179975
208	0xbecc5933	-0.39911804
209	0xbdaa3f6f	-0.0831288
210	0xbd78e9ea	-0.060769953
211	0x3e871eab	0.26390585
212	0xbe42d50f	-0.19026588
213	0xbe1dfed1	-0.15429236
214	0x3ded7276	0.11594097
215	0x3d525846	0.051353715
216	0xbe5743f2	-0.21022013
217	0xbe229241	-0.15876104
218	0xbe7e77e3	-0.2485042
219	0xbf17302c	-0.5905788
220	0x3da1447f	0.07874393
221	0x3cfae0f1	0.030624839
222	0x3d9d140b	0.076698385
223	0x3dd9411f	0.10608124
224	0xbdf990a6	-0.121857926
225	0x3d8bb480	0.06821537
226	0x3d8fc71d	0.070204
227	0x3e442008	0.19152844
228	0x3d4c111a	0.049820997
229	0x3c2aa66e	0.0104156565
230	0x3e2688fe	0.16263196
231	0x3e13cde9	0.14434017
232	0xbdd7cfa1	-0.10537649
233	0x3cbae05f	0.022812067
234	0xbdfa5e4f	-0.12225019
235	0xbe801947	-0.25019285
236	0x3dcbb20b	0.099460684
237	0xbdb2be0e	-0.08727656
238	0x3d4521a3	0.04812778
239	0xbcd07c6e	-0.025449958
240	0x3e2d843e	0.16944978
241	0xbde168d1	-0.1100632
242	0xbe7f481c	-0.24929851
243	0xbedc18e5	-0.42987743
244	0x3d73a352	0.059481926
245	0x3eb48547	0.35257933
246	0xbeb2f685	-0.34953704
247	0x3d811ef2	0.063047305
248	0x3e2f94b5	0.17146571
249	0x3d48f9f7	0.04906651
250	0xbd6fdc14	-0.058559492
251	0x3eb68c6f	0.35654017
252	0x3de56167	0.11200219
253	0x3c09af90	0.008403674
254	0xbe32334b	-0.17402379
255	0xbe5db7e2	-0.21652177

linear.bias f4 [18]
0	0xbdb0a4d2	-0.08625187
1	0x3e2106b0	0.15725207
2	0xbcccf1bb	-0.02501761
3	0xbc37d900	-0.01122117
4	0xbea2dac2	-0.31807524
5	0xbe64a578	-0.22328746
6	0x3d6245f4	0.055242494
7	0xbda57e3b	-0.08080717
8	0xbe80bceb	-0.25144133
9	0xbe89e72c	-0.26934183
10	0xbe3c5ef3	-0.18395595
11	0x3d8e80e8	0.06958181
12	0xbd251498	-0.040302843
13	0xbe81e0e6	-0.25366896
14	0x3e64852d	0.22316428
15	0x3dbbb372	0.09165086
16	0x3c735d57	0.014853797
17	0xbd47bb9e	-0.04876291
