day4/my_lstm_model_1.bin (torch, 394135 bytes, 6 tensors)

lstm.weight_ih_l0 f4 [512, 57]
-0.30042467 0.20625465 -0.30636787 -0.07524571 -0.052804258 0.122145735 -0.47603005 -0.025128635
-0.34032598 -0.019498007 0.10898613 -0.05326867 -0.08979666 -0.37695974 -0.26230544 -0.02971777
0.08842828 -0.42392835 0.083821066 0.19128801 -0.0012949576 0.7002222 0.09044867 -0.22537169
0.4568076 -0.093023434 -0.056799844 -0.156964 -0.16770409 -0.048931774 0.1675899 -0.124043934
0.1468749 -0.3981513 0.17296626 0.116424575 -0.2623267 -0.19824338 0.015715683 -0.23735495
-0.2379312 0.09378981 0.2516392 -0.03870221 -0.049869675 0.061425976 0.04329574 0.15771857
0.041354608 -0.069997825 0.18094437 0.15133293 0.09799055 0.07088976 0.16659574 0.018054932
0.23547472 -0.16920675 0.65616137 -0.107634515 0.24481529 0.13223152 0.3972251 -0.44836393
-0.42377773 -0.15738742 -0.17231861 0.17171949 0.16672322 0.116144314 -0.51367706 -0.36547935
-0.25683904 -0.0956422 0.26501808 0.32724681 0.24658656 -0.24437281 0.5693417 -0.0088705905
-0.029179938 -0.061970882 0.32556206 -0.028206589 0.057032466 -0.22850809 0.03136693 0.12739547
-0.09082267 -0.18786608 -0.2217554 -0.07170022 0.084925644 -0.23371798 0.102196254 -0.26693144
-0.23649152 -0.14695518 -0.11052589 0.08282697 -0.05673452 -0.12277457 -0.17024104 0.11122556
0.31161922 0.11678335 0.1822434 -0.1245883 -0.087567404 -0.22238491 0.041126885 0.04011683
-0.05423159 0.11600874 -0.17365117 -0.20856124 0.23972455 0.2964997 -0.60512155 0.42264056
-0.061812405 0.66736263 -0.39005208 0.4773023 0.35760406 -0.023466468 -0.63247365 -0.19332033
0.17588043 -0.035605907 -0.047374625 -0.6219884 0.083440304 -0.4246631 0.11260645 0.7114268
0.020383032 0.42021635 0.2248012 -0.007179906 -0.15014714 -0.12853853 0.33928257 -0.32512495
0.09569565 0.15566297 -0.016460175 0.13937342 0.16897757 0.28028068 -0.03633211 -0.05051554
-0.061525542 0.3445852 -0.046321083 -0.10494967 -0.16536468 -0.18504067 -0.12380689 0.06370926
0.10114989 0.170564 -0.015334936 -0.018969886 0.26893693 0.40522754 0.05041418 0.051618494
-0.045533575 0.04265561 -0.054885346 -0.6116566 0.20652175 -0.25574312 0.6612606 0.14016607
-0.5349289 0.08467859 -0.47978133 -0.24168348 0.3230079 -0.11188338 0.48921993 0.07264919
0.37422395 0.5728314 0.044528857 0.18516015 0.31182957 0.07221739 0.20901608 0.32687917
0.03535365 0.25487906 0.04900778 0.12128242 0.09044123 -0.07520258 -0.22574319 -0.1692395
0.03974871 0.30548277 -0.03970609 -0.044529296 -0.34991726 0.11478444 0.010062775 0.12146412
-0.2138463 -0.10317014 -0.16254506 0.2579018 0.089129254 0.35181627 -0.051776454 0.05943418
0.07359206 -0.057199188 0.04845613 -0.092917696 -0.20844951 0.02301961 0.17582662 0.32940936
-0.07547247 0.09409297 -0.05098737 0.21104015 -0.3344143 0.5137346 0.018441653 -0.28711635
0.19551177 0.7464859 0.0987887 -0.32620358 -0.03270506 -0.13342094 0.0650331 -0.028676711
-0.025607843 -0.056251407 -0.2561388 -0.02791416 -0.20661709 -0.18582766 -0.3741902 -0.4445363
0.18656148 1.0736023 0.30675334 -0.06053664 0.13906936 0.44827822 -0.19487852 0.011662514
00000000: 43d1 99be 6b34 533e 40dc 9cbe 6c1a 9abd
00000010: 4749 58bd 8b27 fa3d 36ba f3be 91da cdbc
00000020: 353f aebe 49ba 9fbc 1f34 df3d 4030 5abd
00000030: 50e7 b7bd de00 c1be e64c 86be ae72 f3bc
00000040: e319 b53d 230d d9be 61aa ab3d 01e1 433e
00000050: 91bb a9ba c341 333f 273d b93d d6c7 66be
00000060: b0e2 e93e 1283 bebd f4a6 68bd 2cbb 20be
00000070: 9fba 2bbe af6c 48bd b09c 2b3e bf0a febd
00000080: 6066 163e 7dda cbbe 111e 313e 0270 ee3d
00000090: af4f 86be 5000 4bbe 2dbe 803c 2d0d 73be
000000a0: 3da4 73be df14 c03d dad6 803e 3586 1ebd
000000b0: 2544 4cbd ce99 7b3d e056 313d fa80 213e
000000c0: 7363 293d 055b 8fbd 7b49 393e 05f7 1a3e
000000d0: 45af c83d a72e 913d 1398 2a3e f0e7 933c
000000e0: 4920 713e 8944 2dbe 31fa 273f 7c6f dcbd
000000f0: dcb0 7a3e b367 073e 1761 cb3e f58f e5be
00000100: 65f9 d8be 2b2a 21be 4a74 30be 3cd7 2f3e
00000110: 7eb9 2a3e 12dd ed3d 5780 03bf 1c20 bbbe
00000120: 6880 83be 0fe0 c3bd 73b0 873e e58c a73e
00000130: 3081 7c3e de3c 7abe 61c0 113f f455 11bc
00000140: c40a efbc 2ed5 7dbd 12b0 a63e 8111 e7bc
00000150: e09a 693d 06fe 69be 9c7a 003d f573 023e
00000160: 3c01 babd f75f 40be d913 63be 91d7 92bd
00000170: 7fed ad3d c453 6fbe 454c d13d 3dab 88be
00000180: d52a 72be 6b7b 16be 665b e2bd 30a1 a93d
00000190: 7562 68bd 3c71 fbbd ab53 2ebe 3aca e33d
000001a0: 8e8c 9f3e 1c2c ef3d 049e 3a3e 2728 ffbd
000001b0: 8a56 b3bd dfb8 63be aa74 283d 8c51 243d
000001c0: f221 5ebd fe95 ed3d 9dd1 31be 1491 55be
000001d0: 5a7a 753e cfce 973e 3fe9 1abf 5864 d83e
000001e0: 012f 7dbd 47d8 2a3f e8b4 c7be f860 f43e
000001f0: e117 b73e c03c c0bc cbe9 21bf c4f5 45be
00000200: 001a 343e 80d7 11bd e50b 42bd a23a 1fbf
00000210: c0e2 aa3d 716d d9be 369e e63d 1120 363f
00000220: 51fa a63c 9926 d73e 4932 663e 6b45 ebbb
00000230: 2cc0 19be 9b9f 03be 72b6 ad3e c776 a6be
00000240: 15fc c33d 1d66 1f3e 7dd7 86bc e8b7 0e3e
00000250: 7508 2d3e f380 8f3e fbd0 14bd 62e9 4ebd
00000260: 3502 7cbd 796d b03e 2dbb 3dbd daef d6bd
00000270: 5c55 29be 4d7b 3dbe 778e fdbd 007a 823d
00000280: ac27 cf3d 54a8 2e3e 623f 7bbc bc66 9bbc
00000290: 1ab2 893e fc79 cf3e 197f 4e3d ea6d 533d
000002a0: 6a81 3abd a6b7 2e3d 75cf 60bd 8795 1cbf
000002b0: 707a 533e c3f0 82be 6048 293f b287 0f3e
000002c0: 1af1 08bf f86b ad3d e6a5 f5be e07b 77be
000002d0: 4b61 a53e 1d23 e5bd 097b fa3e 19c9 943d
000002e0: 489a bf3e 14a5 123f e463 363d 9f9a 3d3e
000002f0: 20a8 9f3e b6e6 933d 5008 563e b55c a73e
00000300: fdce 103d 827f 823e 62bc 483d eb62 f83d
00000310: 4039 b93d cf03 9abd 3929 67be 1f4d 2dbe
00000320: 8bcf 223d 3d68 9c3e daa2 22bd 5a64 36bd
00000330: 5b28 b3be 1b14 eb3d 56de 243c 2ec2 f83d
00000340: 86fa 5abe de4a d3bd 3672 26be b40b 843e
00000350: 6689 b63d 4321 b43e 8c13 54bd 4171 733d
00000360: 6fb7 963d b249 6abd ef79 463d a24b bebd
00000370: ca73 55be 9f93 bc3c e50b 343e 58a8 a83e
00000380: 4f91 9abd d1b3 c03d 22d8 50bd e91a 583e
00000390: 5a38 abbe 1c84 033f f312 973c ea00 93be
000003a0: 3d34 483e b319 3f3f bb51 ca3d 2804 a7be
000003b0: bef5 05bd 809f 08be 1330 853d 6ceb eabc
000003c0: 8ac7 d1bc e067 66bd a024 83be 3dac e4bc
000003d0: 6e93 53be 9b49 3ebe dc95 bfbe 439a e3be
000003e0: f909 3f3e cd6b 893f c60e 9d3e 45f5 77bd
000003f0: 3368 0e3e b984 e53e 3c8e 47be 2114 3f3c

lstm.weight_hh_l0 f4 [512, 128]
0.07085189 0.15290438 -0.03321543 0.10303877 0.016202042 -0.2538904 -0.057273626 0.13494103
-0.078706644 0.13242753 -0.11125327 0.061675545 -0.21106823 0.1242341 -0.005756151 0.021373289
-0.049002267 -0.03225582 -0.1057123 0.11646951 0.34541908 0.067620814 -0.1984523 -0.05963383
0.19043413 0.11612511 0.1692199 -0.16204208 0.08965185 -0.1295477 -0.11863471 -0.17930071
0.26074624 0.012974112 -0.0058238115 0.08797639 -0.139835 0.36033532 0.053235553 0.08082266
0.12561327 0.1359439 -0.23988947 0.07423983 -0.10396578 -0.11954515 -0.34233636 0.12768969
0.058148865 0.07304844 0.022402246 0.08237959 0.0145154325 0.122896776 -0.022156755 -0.085439175
-0.0065778084 0.13327093 -0.01108182 -0.29677778 -0.00019361166 -0.07824046 0.039377645 -0.12710172
-0.2428356 0.4049969 -0.09728506 -0.031079268 -0.0014929054 0.10814101 -0.093421645 -0.13182086
0.025791168 -0.27186313 0.0013811351 0.53441274 -0.0048147 0.018032916 0.06706012 0.04792421
-0.02822063 0.05335511 -0.053738058 0.12580709 -0.20097524 0.16715123 -0.06254861 -0.056159124
0.09053813 -0.11853293 0.3040811 -0.14658435 0.07395799 0.16894332 -0.12864855 0.15645617
-0.08473593 -0.026087204 -0.08217848 0.12770635 -0.10471331 0.18709874 -0.03363644 -0.013405051
0.016577207 0.01073 0.24258317 0.16563468 0.040251907 0.22348697 -0.17521797 -0.08526371
-0.03143027 0.41082272 0.26762637 0.094873376 -0.1589443 0.15637296 0.13221224 -0.024773235
-0.057327937 0.020898903 -0.08323732 0.18345295 0.39589956 0.06929065 -0.07372681 -0.010401292
0.086748324 -0.15201847 0.01711917 -0.032614477 0.07742035 0.0954799 -0.07734304 -0.13483049
0.1590629 0.19168083 0.035907183 0.102458425 0.16114981 0.17443731 -0.33178005 0.22710098
0.05964795 -0.009424635 0.14723627 0.030005477 -0.04539167 0.04217716 0.0971256 0.0037187093
-0.12433071 -0.20906474 0.07836748 0.20139049 0.13585111 -0.021007888 -0.21701719 0.01579116
0.083193466 0.16590483 0.06256869 0.09721721 -0.28649724 -0.08655818 -0.1821589 -0.24392748
-0.09987736 -0.19368047 -0.20710766 -0.2816902 0.45844877 -0.01628711 0.031033443 -0.17581074
0.023467012 0.027756723 -0.011479609 -0.10655818 -0.112796806 -0.05408433 0.15461689 0.3141692
0.5389127 -0.0034108337 -0.3307044 0.017825693 -0.05890914 -0.06644428 0.06253556 0.0030622133
0.102575466 0.15654913 -0.04906171 -0.2995838 0.18755229 0.09348037 0.2985589 -0.16893904
0.10934295 -0.08377296 0.018349407 0.02395784 -0.092565656 -0.16496132 -0.14307094 0.13544515
0.13000834 0.099906616 -0.23790666 -0.13534659 -0.0008143695 0.11244097 0.13966611 0.11837766
0.18719432 0.011900665 -0.060233872 0.12535983 -0.13661014 0.23975298 0.4550446 0.123213306
0.13118623 0.01943298 0.20111445 -0.08354079 0.20873527 0.022630773 -0.32177168 -0.020366274
0.19938572 -0.0737478 0.07554944 -0.017979363 -0.0066265427 -0.03984881 0.09294201 0.19832253
-0.0054435385 0.02233412 -0.028159287 -0.10414319 -0.10704552 0.05142152 -0.09932786 0.017261863
0.10275825 -0.19280984 0.05676339 0.22996041 0.10690056 0.045602903 0.13358194 -0.066429615
00000000: cc1a 913d f792 1c3e e70c 08bd fe05 d33d
00000010: 25ba 843c ecfd 81be c097 6abd fb2d 0a3e
00000020: f330 a1bd 159b 073e c1d8 e3bd 7f9f 7c3d
00000030: 4522 58be 736e fe3d 189e bcbb 0917 af3c
00000040: 9ab6 48bd ae1e 04bd b17f d8bd 9187 ee3d
00000050: c5da b03e c87c 8a3d 1437 4bbe 9a42 74bd
00000060: 2a01 433e 00d3 ed3d fb47 2d3e 5cee 25be
00000070: 649b b73d 27a8 04be c1f6 f2bd 9b9a 37be
00000080: 8880 853e 5f91 543c acd5 bebb f72c b43d
00000090: e830 0fbe df7d b83e 860d 5a3d 5a86 a53d
000000a0: c4a0 003e e134 0b3e 96a5 75be 0d0b 983d
000000b0: 03ec d4bd 16d4 f4bd b646 afbe 16c1 023e
000000c0: 812d 6e3d 6c9a 953d ea84 b73c a1b6 a83d
000000d0: 23d2 6d3c 4eb1 fb3d 1582 b5bc bcfa aebd
000000e0: a88a d7bb 2d78 083e 8690 35bc 42f3 97be
000000f0: 3c04 4bb9 893c a0bd 744a 213d f426 02be
00000100: e5a9 78be c15b cf3e 643d c7bd f399 febc
00000110: 98ad c3ba 0979 dd3d d953 bfbd 0cfc 06be
00000120: 0048 d33c a531 8bbe 3407 b53a 46cf 083f
00000130: a2c4 9dbb c4b9 933c d156 893d 2d4c 443d
00000140: f32e e7bc e38a 5a3d 701c 5cbd 93d3 003e
00000150: 74cc 4dbe b129 2b3e 7c19 80bd 1c07 66bd
00000160: 0e6c b93d 65c1 f2bd 85b0 9b3e 351a 16be
00000170: 4977 973d 7aff 2c3e 72bc 03be 0c36 203e
00000180: 088a adbd d5b4 d5bc 314d a8bd 74c5 023e
00000190: ef73 d6bd d096 3f3e 5dc6 09bd dca0 5bbc
000001a0: eccc 873c e2cc 2f3c b967 783e 239c 293e
000001b0: 2fdf 243d c5d9 643e 576c 33be bd9e aebd
000001c0: 07bd 00bd 5b57 d23e 5306 893e f94c c23d
000001d0: 4bc2 22be 3c20 203e a562 073e 3df1 cabc
000001e0: b3d0 6abd 2d34 ab3c 5478 aabd 17db 3b3e
000001f0: 59b3 ca3e 42e8 8d3d 15fe 96bd 2e6a 2abc
00000200: 1ba9 b13d bbaa 1bbe 803d 8c3c c296 05bd
00000210: 8f8e 9e3d f78a c33d 0766 9ebd 0111 0abe
00000220: 63e1 223e fb47 443e 6913 133d b9d5 d13d
00000230: 7504 253e b29f 323e 13df a9be 298d 683e
00000240: 6951 743d c969 1abc 1bc5 163e 0cce f53c
00000250: 9eec 39bd f5c1 2c3d c9e9 c63d 97b5 733b
00000260: 19a1 febd 1115 56be 217f a03d 4f39 4e3e
00000270: 8e1c 0b3e bc18 acbc c139 5ebe 765c 813c
00000280: 5661 aa3d f5e2 293e 0324 803d d119 c73d
00000290: c4af 92be 6a45 b1bd dd87 3abe 20c8 79be
000002a0: 808c ccbd 2c54 46be 0814 54be b339 90be
000002b0: ccb9 ea3e 8c6c 85bc d939 fe3c bb07 34be
000002c0: e43d c03c 1162 e33c f814 3cbc 2d3b dabd
000002d0: 0302 e7bd 8887 5dbd e453 1e3e c9da a03e
000002e0: 2ff6 093f 4b88 5fbb 1652 a9be 3007 923c
000002f0: b64a 71bd f013 88bd a512 803d 6aaf 483b
00000300: 1613 d23d 6a4e 203e eef4 48bd 0c63 99be
00000310: b50d 403e a372 bf3d b6dc 983e 5bfe 2cbe
00000320: 32ef df3d 2891 abbd 7f51 963c 3b43 c43c
00000330: 1093 bdbd 9feb 28be 3081 12be 22b2 0a3e
00000340: e820 053e d79b cc3d ce9d 73be 4c98 0abe
00000350: 697b 55ba 7447 e63d a204 0f3e fd6f f23d
00000360: deaf 3f3e 02fb 423c cbb7 76bd 545e 003e
00000370: 87e3 0bbe ce81 753e 9bfb e83e 4257 fc3d
00000380: af55 063e ea31 9f3c f2f0 4d3e 6f17 abbd
00000390: b3be 553e 2c64 b93c 42bf a4be 2cd7 a6bc
000003a0: c52b 4c3e 1609 97bd aab9 9a3d 7549 93bc
000003b0: 7823 d9bb 8138 23bd 6158 be3d 1015 4b3e
000003c0: b65f b2bb 0bf6 b63c 4eae e6bc 0649 d5bd
000003d0: ae3a dbbd 5f9f 523d 686c cbbd c068 8d3c
000003e0: eb72 d23d f16f 45be ba80 683d be7a 6b3e
000003f0: aeee da3d 1cca 3a3d b4c9 083e 400c 88bd

lstm.bias_ih_l0 f4 [512]
-0.3476779 -0.2532206 -0.06157246 0.37077102 0.24266385 -0.20696434 -0.24356367 0.074423395
-0.0013706252 8.498723e-05 -0.1995205 -0.05041309 0.18965846 0.08676425 0.054026734 -0.045046326
0.33474126 -0.23899783 0.00048133303 -0.124575034 -0.10231826 0.32339165 0.64752114 0.34527707
0.09375722 -0.04719724 -0.07366819 -0.09369076 0.3163152 0.00097410555 -0.15338978 -0.08553252
0.18637145 -0.21192853 -0.2092674 -0.086897895 -0.02228181 -0.08480071 0.10556242 -0.01406255
-0.12571219 0.113458216 -0.049918592 0.059742443 -0.16883962 -0.01586432 0.07964295 0.118496224
-0.2232991 -0.06766347 -0.25295922 -0.2157199 -0.113734744 -0.08849349 -0.14923441 0.06671353
-0.14319843 -0.06067516 0.34982124 0.07453719 -0.093499124 0.039192274 -0.23018815 -0.08635775
-0.106494606 0.40187678 0.5110702 0.07607098 -0.23600806 -0.12948751 0.12414268 0.1949908
-0.06312687 -0.18378367 -0.3657015 0.04653447 -0.17192945 -0.08467785 -0.13988079 -0.18481739
0.29920337 0.0031064698 0.112434514 -0.26287624 0.06786848 -0.2682706 -0.21423307 -0.16969822
0.08272966 -0.03509062 0.06394754 0.0442258 0.049159188 -0.046535246 0.06824384 -0.20696928
-0.14228836 -0.20245962 0.35254908 -0.012743219 -0.024406679 0.12933014 0.038885858 0.035392188
-0.10472277 -0.11373507 0.035936214 -0.13542448 0.3399051 -0.27377355 -0.2034097 -0.01320971
0.14143404 0.060141996 -0.08369002 -0.18708181 0.027165627 -0.22151126 -0.27469566 -0.19029486
-0.24073611 0.086627945 -0.10198391 0.29498026 0.10348531 -0.19155051 -0.27435356 -0.065365285
-0.083678685 0.23342921 -0.023423586 -0.28179607 -0.06406082 0.015129841 -0.09804781 0.35866955
-0.011494609 0.06726705 0.07914276 0.3265467 -0.019700019 0.16901769 -0.031607144 0.4388468
-0.15246952 -0.09256472 0.16433185 0.131399 -0.0051013925 -0.09200946 -0.21971254 -0.064750664
-0.17225994 -0.043838415 -0.053912953 0.13461734 -0.2155531 0.11177568 -0.017775256 0.11982854
-0.2018798 0.0015523122 0.22247091 0.014895441 -0.10622307 -0.030035887 -0.054033536 -0.011526063
0.20959699 -0.039359376 -0.022776939 0.15573697 0.33964616 0.4727569 -0.27258867 0.009835804
-0.05654211 0.08731609 0.05701568 -0.05140918 -0.08160303 0.05426092 0.21368177 -0.09460009
-0.1853846 0.25627038 -0.1116178 0.07081994 0.06988897 -0.31458047 0.03331449 0.2059338
0.2793606 -0.19306256 -0.34835675 0.21530324 -0.13587147 0.13918814 0.17673354 -0.108513996
-0.072997935 0.31474507 0.07070666 -0.0073453453 0.06306388 -0.10859667 0.008826242 0.065749094
-0.3051677 0.21618041 0.19520575 0.019532952 0.02556223 0.005672958 -0.13065393 0.026688505
-0.013128291 -0.07374785 0.17949511 -0.17175935 -0.08573161 -0.09444477 0.023153633 0.26649252
-0.0020747415 0.039333574 -0.20593858 0.16350663 0.23592532 -0.00012910913 -0.025215184 0.09142443
0.025157323 0.23152341 -0.0052612554 0.029615855 -0.065713555 0.00010194184 0.17945194 -0.14939743
-0.061270997 -0.1175655 0.033164468 -0.12584408 0.19677554 -0.068253025 0.11643648 -0.036680937
-0.16852488 0.01825043 -0.024632813 -0.0044617206 0.030036842 -0.17210226 0.08483776 0.069801904
00000000: d602 b2be 21a6 81be 6733 7cbd b3d5 bd3e
00000010: df7c 783e 76ee 53be c168 79be 4b6b 983d
00000020: 8da6 b3ba 2c3b b238 1a4f 4cbe f57d 4ebd
00000030: d435 423e 75b1 b13d 234b 5d3d 7f82 38bd
00000040: 3563 ab3e d9bb 74be 6d5b fc39 3221 ffbd
00000050: 3c8c d1bd 9793 a53e f2c3 253f 28c8 b03e
00000060: c903 c03d e551 41bd 59df 96bd f1e0 bfbd
00000070: 11f4 a13e 1e5b 7f3a 3612 1dbe ad2b afbd
00000080: 28d8 3e3e cb03 59be 314a 56be 86f7 b1bd
00000090: 5888 b6bc ffab adbd 1c31 d83d 9c66 66bc
000000a0: b2ba 00be c85c e83d 7077 4cbd 7eb4 743d
000000b0: 4be4 2cbe e4f5 81bc d81b a33d 26ae f23d
000000c0: 85a8 64be 2593 8abd df83 81be ade5 5cbe
000000d0: c3ed e8bd 133c b5bd e8d0 18be 1aa1 883d
000000e0: 9ca2 12be 8486 78bd c51b b33e f4a6 983d
000000f0: 787c bfbd 1488 203d 71b6 6bbe 55dc b0bd
00000100: d819 dabd cbc2 cd3e 7fd5 023f 1acb 9b3d
00000110: 19ac 71be 6098 04be 843e fe3d abab 473e
00000120: a948 81bd c931 3cbe 3a3d bbbe ee9a 3e3d
00000130: 460e 30be 956b adbd e93c 0fbe c540 3dbe
00000140: 2f31 993e ea95 4b3b 1144 e63d b797 86be
00000150: a1fe 8a3d c45a 89be ea5f 5bbe 5fc5 2dbe
00000160: 2b6e a93d 2fbb 0fbd eef6 823d 1d26 353d
00000170: 255b 493d be9b 3ebd 6dc3 8b3d c1ef 53be
00000180: 0ab4 11be 9351 4fbe 5081 b43e efc8 50bc
00000190: 84f0 c7bc 1f6f 043e c746 1f3d 66f7 103d
000001a0: e478 d6bd efed e8bd da31 133d b7ac 0abe
000001b0: 0b08 ae3e 0c2c 8cbe a24a 50be 8a6d 58bc
000001c0: 16d4 103e 7457 763d ac65 abbd 6092 3fbe
000001d0: 738a de3c d9d3 62be e9a4 8cbe a8dc 42be
000001e0: 8783 76be fe69 b13d f1dc d0bd a707 973e
000001f0: 1bf0 d33d d125 44be 1278 8cbe 3cde 85bd
00000200: bb5f abbd 1108 6f3e d2e2 bfbc 9347 90be
00000210: 5232 83bd 27e3 773c 4acd c8bd 89a3 b73e
00000220: e253 3cbc 4fc3 893d 9915 a23d 2131 a73e
00000230: ef61 a1bc f912 2d3e 7e76 01bd 87b0 e03e
00000240: f820 1cbe 9292 bdbd 9c46 283e 768d 063e
00000250: 9529 a7bb 756f bcbd 53fc 60be ff9b 84bd
00000260: e964 30be e98f 33bd d4d3 5cbd 21d9 093e
00000270: f4b9 5cbe a6ea e43d 6a9d 91bc aa68 f53d
00000280: 94b9 4ebe f476 cb3a 6acf 633e 020c 743c
00000290: 7b8b d9bd d20d f6bc 4552 5dbd d0d7 3cbc
000002a0: 98a0 563e 4c37 21bd b496 babc 8379 1f3e
000002b0: 1ae6 ad3e 310d f23e be90 8bbe 5a26 213c
000002c0: b398 67bd c7d2 b23d 4689 693d 6f92 52bd
000002d0: 7d1f a7bd b340 5e3d 65cf 5a3e b1bd c1bd
000002e0: 76d5 3dbe df35 833e e097 e4bd 0b0a 913d
000002f0: f321 8f3d b110 a1be c674 083d 4fe0 523e
00000300: 5a08 8f3e 31b2 45be d15b b2be 7478 5c3e
00000310: e421 0bbe 5687 0e3e a3f9 343e 963c debd
00000320: f17f 95bd 4426 a13e a7ce 903d 39b1 f0bb
00000330: a327 813d ee67 debd f19b 103c 76a7 863d
00000340: f13e 9cbe 665e 5d3e 04e4 473e 9203 a03c
00000350: e267 d13c 39e4 b93b 25ca 05be daa1 da3c
00000360: 0b18 57bc 1d09 97bd 91cd 373e afe1 2fbe
00000370: 0e94 afbd 426c c1bd b0ac bd3c b571 883e
00000380: 63f8 07bb 3e1c 213d 90e1 52be 486e 273e
00000390: 6896 713e 7861 07b9 1390 cebc bb3c bb3d
000003a0: bb16 ce3c 7914 6d3e 9c66 acbb f39c f23c
000003b0: d494 86bd 9cc9 d538 40c2 373e a4fb 18be
000003c0: 4cf7 7abd 2ec6 f0bd 77d7 073d 45dd 00be
000003d0: 877f 493e 3ec8 8bbd 4076 ee3d c03e 16bd
000003e0: c991 2cbe ed81 953c c1ca c9bc a033 92bb
000003f0: d30f f63c 933b 30be 6bbf ad3d 4df4 8e3d

lstm.bias_hh_l0 f4 [512]
-0.29310694 -0.2348027 0.0052456507 0.3721511 0.12394227 -0.33294368 -0.18839046 -0.021648908
-0.02515083 -0.022702571 -0.17149611 -0.020849714 0.25907266 0.08903455 0.08563827 -0.15311696
0.29244134 -0.120653674 0.08816277 -0.045041583 -0.020283332 0.2999613 0.69944876 0.40752858
-0.064807326 -0.025314994 0.0058978708 -0.2507243 0.29630786 0.043528862 -0.20734264 -0.14493783
0.11819968 -0.21059108 -0.21969983 -0.15145868 -0.114327766 -0.07845807 0.08364015 -0.08548752
-0.18498567 0.00056680624 -0.06761387 -0.0028678013 -0.1575716 -0.05039329 0.05735201 0.13934594
-0.24725674 -0.08953608 -0.24231572 -0.21245635 0.032501776 -0.056274507 -0.22675583 0.010135807
-0.10052456 -0.17279041 0.423653 0.078478634 -0.10017157 -0.045633085 -0.27766445 -0.1071845
-0.07813452 0.29831073 0.52477103 -0.010002431 -0.15863784 -0.081577554 0.06616577 0.18532382
-0.16333343 -0.057411157 -0.36338562 -0.059733793 -0.12419355 -0.14569443 -0.0884052 -0.18803112
0.29227862 -0.042230442 0.081248425 -0.12077844 0.011647706 -0.3032292 -0.16923626 -0.11347964
-0.0044123232 -0.043383874 0.07020764 0.0016413956 0.06612969 -0.03147704 0.1178421 -0.20671104
-0.06453887 -0.24605396 0.2355358 -0.12752776 -0.04939338 0.16578236 -0.05133685 -0.056340598
-0.010435863 -0.099487476 0.14825162 -0.16853653 0.33453086 -0.13134485 -0.1408788 -0.016143287
0.21544942 0.038860492 -0.16596417 -0.13356075 -0.09880199 -0.2275438 -0.18653037 -0.12885296
-0.14066498 0.06438981 -0.05106927 0.18908462 0.11488239 -0.18584527 -0.23733296 -0.13538282
-0.054328408 0.1224749 0.096607536 -0.20084827 -0.07267735 -0.09283527 0.032749064 0.22578101
0.022059103 0.022508945 -0.07082545 0.28716388 -0.16845655 0.29828832 -0.1374656 0.37759736
-0.15558924 -0.012155007 0.27609503 0.17750713 -0.00067678164 -0.18417296 -0.1983106 -0.0060809487
-0.1366462 -0.04580419 0.016312666 0.13270696 -0.29359013 -0.022182254 -0.046789203 0.058000576
-0.26201382 0.0968596 0.22541933 0.004705444 -0.00025187025 -0.16505851 -0.029227939 0.09392825
0.037214883 -0.0032004812 0.06723971 0.192765 0.23910032 0.44445494 -0.19737265 0.09956388
-0.004264207 0.07716509 0.046517484 0.039755337 -0.022979902 -0.0127007775 0.11908741 -0.08825452
-0.14717923 0.3356646 -0.18686208 0.1698413 -0.02524899 -0.2151102 0.012810581 0.23700969
0.23412383 -0.109354846 -0.29163525 0.25251263 -0.04411622 0.09183716 0.2535962 -0.015076031
-0.0028013638 0.28138992 0.004627427 0.03452765 0.042289067 0.022790376 -0.11360322 -0.052545354
-0.28411216 0.173693 0.15670711 0.05527005 -0.10323862 -0.025074596 -0.13095845 0.02658412
0.11253498 -0.038478713 0.1219605 -0.21455906 -0.092023745 -0.24396887 0.053353004 0.32882679
0.083955735 -0.10970969 -0.17190874 0.050631117 0.24083878 -0.024995575 0.117292926 -0.038925745
-0.006728576 0.19791931 -0.0941753 -0.0040922044 -0.14957088 -0.0021198415 0.071719445 0.0048188106
-0.055798225 -0.17193523 0.0023311535 -0.1054918 0.12831002 -0.10217669 0.10950067 -0.13787857
-0.10524547 -0.033841304 -0.011059011 0.041127976 0.082448125 -0.1233754 0.010183557 -0.024915949
00000000: 1d12 96be 1e70 70be b5e3 ab3b 978a be3e
00000010: 72d5 fd3d 9877 aabe 6ee9 40be 0d59 b1bc
00000020: 1d09 cebc befa b9bc ad9c 2fbe 05cd aabc
00000030: 2ca5 843e bf57 b63d 1e63 af3d b1ca 1cbe
00000040: dfba 953e 4619 f7bd af8e b43d 867d 38bd
00000050: 3b29 a6bc 8794 993e 130f 333f 96a7 d03e
00000060: b4b9 84bd 6461 cfbc ed42 c13b ef5e 80be
00000070: aab5 973e 524b 323d a151 54be 956a 14be
00000080: ac12 f23d 30a5 57be fef8 60be fc17 1bbe
00000090: ad24 eabd a0ae a0bd 874b ab3d 1514 afbd
000000a0: e26c 3dbe b995 143a 2479 8abd b9f1 3bbb
000000b0: 735a 21be 3269 4ebd f1e9 6a3d b4b0 0e3e
000000c0: df30 7dbe b15e b7bd 9d21 78be 288e 59be
000000d0: 9520 053d 1980 66bd ae32 68be a810 263c
000000e0: d2df cdbd f8ef 30be 0ce9 d83e 68b9 a03d
000000f0: c126 cdbd c2e9 3abd 092a 8ebe 8c83 dbbd
00000100: fe04 a0bd 2fbc 983e 6557 063f 3de1 23bc
00000110: f571 22be 2212 a7bd eb81 873d 87c5 3d3e
00000120: e140 27be f627 6bbd ae0d babe 6cab 74bd
00000130: 3059 febd ec30 15be c90d b5bd 3b8b 40be
00000140: 8ba5 953e d4f9 2cbd 9365 a63d b05a f7bd
00000150: 05d6 3e3c dc40 9bbe 454c 2dbe 0368 e8bd
00000160: 4095 90bb 4ab3 31bd 06c9 8f3d 1924 d73a
00000170: 016f 873d 12ee 00bd 3357 f13d 0fac 53be
00000180: f42c 84bd 92f5 7bbe 4c30 713e a396 02be
00000190: b650 4abd dac2 293e 9746 52bd 66c5 66bd
000001a0: 2ffb 2abc 17c0 cbbd 46cf 173e d794 2cbe
000001b0: a147 ab3e 447f 06be 8842 10be ed3e 84bc
000001c0: c69e 5c3e 2e2c 1f3d 83f2 29be 26c4 08be
000001d0: b358 cabd 3e01 69be d101 3fbe 08f2 03be
000001e0: 7b0a 10be cede 833d 032e 51bd 669f 413e
000001f0: 7547 eb3d 394e 3ebe 6907 73be cba1 0abe
00000200: 7787 5ebd 1fd4 fa3d 2cda c53d 2bab 4dbe
00000210: ddd7 94bd 6b20 bebd e223 063d 2333 673e
00000220: 4bb5 b43c ae64 b83c ef0c 91bd 2507 933e
00000230: e07f 2cbe 3fb9 983e c8c3 0cbe 7154 c13e
00000240: c952 1fbe cb25 47bc 545c 8d3e 6ec4 353e
00000250: 0c6a 31ba d697 3cbe ef11 4bbe b242 c7bb
00000260: fbec 0bbe 2d9d 3bbd 24a2 853c 55e4 073e
00000270: 7251 96be 8fb7 b5bc 09a6 3fbd 0392 6d3d
00000280: ad26 86be 535e c63d 53d4 663e 2030 9a3b
00000290: 740d 84b9 1905 29be 6e6f efbc 745d c03d
000002a0: a26e 183d 2abf 51bb f9b4 893d 3064 453e
000002b0: b7d6 743e 998f e33e 0e1c 4abe 26e8 cb3d
000002c0: c3ba 8bbb bb08 9e3d 1e89 3e3d 7ed6 223d
000002d0: 5940 bcbc ec16 50bc 1ae4 f33d c9be b4bd
000002e0: 27b6 16be 3bdc ab3e c658 3fbe e1ea 2d3e
000002f0: f8d6 cebc d945 5cbe 79e3 513c abb2 723e
00000300: 28be 6f3e 6ff5 dfbd 3751 95be 5649 813e
00000310: 36b3 34bd 1f15 bc3d 5cd7 813e 7501 77bc
00000320: 1697 37bb 5712 903e aca1 973b dd6c 0d3d
00000330: 4d37 2d3d e2b2 ba3c cea8 e8bd cc39 57bd
00000340: 2677 91be 94dc 313e d477 203e d962 623d
00000350: c56e d3bd 3d69 cdbc f919 06be f1c6 d93c
00000360: bd78 e63d db9b 1dbd 6dc6 f93d 5fb5 5bbe
00000370: f276 bcbd fad2 79be ae88 5a3d fc5b a83e
00000380: fcf0 ab3d 79af e0bd d808 30be 9362 4f3d
00000390: 719e 763e 85c3 ccbc 4637 f03d 9a70 1fbd
000003a0: 637b dcbb 5cab 4a3e fbde c0bd e617 86bb
000003b0: 1c29 19be 0aed 0abb a5e1 923d 1de7 9d3b
000003c0: ae8c 64bd ca0f 30be 44c6 183b 160c d8bd
000003d0: b463 033e 0342 d1bd e341 e03d 0a30 0dbe
000003e0: f08a d7bd 2e9d 0abd db30 35bc cf75 283d
000003f0: 90da a83d 3eac fcbd efd8 263c 881c ccbc

linear.weight f4 [18, 128]
-0.18856859 0.24653453 -0.54396105 0.23899165 -0.06585167 0.14619404 0.13406743 -0.5707216
-0.095155284 0.008219457 -0.23502573 0.21812163 -0.46514508 -0.24649984 -0.02430475 -0.0704764
0.22221723 -0.0039627566 -0.3462046 -0.13099879 0.15684076 -0.61491156 -0.8098363 0.6651534
0.47857115 0.32224116 -0.5886254 -0.15309446 -0.5624036 0.1119363 0.15457655 0.03336678
0.12362717 -0.24146552 -0.17770788 0.03859684 0.03741891 0.4028181 -0.012196971 0.28117725
0.11161156 -0.60006815 -0.3092665 0.4124096 -0.23613736 0.13452011 -0.405404 0.51009303
-0.1970564 0.27800608 0.11174132 0.3671915 0.23248546 0.048546776 -0.31623608 -0.12105274
-0.3632392 -0.22632074 0.7680186 -0.41153437 0.11011164 -0.023472907 -0.39626804 0.53936416
0.4402365 -0.24788955 -0.50998974 -0.0632501 0.13202266 -0.04766587 -0.092285484 0.29861972
-0.031482458 0.47390682 -0.08018919 -0.001369687 0.23042984 0.124619626 0.2576908 -0.21515957
0.25158566 -0.19493203 0.47002295 0.5048339 -0.51495916 -0.21837851 -0.48004758 0.37822628
0.052705426 0.22198902 -0.122596115 -0.090242594 -0.15523696 0.0017847759 -0.4809733 0.06108004
-0.1860978 -0.13616839 -0.3339849 0.20340464 0.0003080762 -0.16171929 -0.022729415 -0.7562292
-0.2735922 0.20249434 0.53625023 0.17424604 0.7100927 0.24457636 0.028471382 0.05152507
0.4423056 0.2702455 0.04499265 -0.044618797 -0.07052567 0.46512437 0.13806045 -0.344635
-0.05681269 0.18506774 0.16651851 -0.4616779 -0.42701012 0.15641741 -0.17377515 0.120859176
-0.07283867 -0.115987346 -0.1732448 -0.6072272 0.3258192 0.25161883 -0.24383038 -0.03454718
0.23952389 0.27076152 -0.06921744 -0.24762619 0.47381637 -0.21370254 -0.18717413 -0.15942025
0.01798979 0.06153084 -0.082673416 -0.35950443 0.0689285 0.41002178 0.24804309 -0.2016256
-0.18314488 -0.05089977 -0.115797505 0.24779746 0.35769248 0.13036843 -0.0010704204 0.26699647
0.1250516 -0.050542958 0.12832418 -0.094316065 0.2632364 -0.04382608 -0.32754028 0.19781019
-0.16489662 -0.11286762 0.1740594 0.15368271 -0.027088828 0.20836699 -0.087763555 -0.44809496
-0.06689448 -0.09047866 0.015175116 -0.092197396 -0.15597114 -0.17856555 0.11700905 0.31382468
0.12214816 -0.38556042 -0.3718457 0.23539437 -0.04275357 0.30049962 0.07903254 0.19439454
0.018223315 -0.26237625 0.10349858 0.27279922 -0.009106692 -0.11456005 0.019344606 -0.29048896
0.46166238 0.10530323 0.16805658 0.008718513 0.32374594 0.30023414 0.018752292 0.0916941
0.32205394 0.18784654 -0.015435106 -0.29701337 0.17593375 -0.3989007 0.10564159 -0.15193175
-0.15705797 0.19522977 -0.08310469 0.36505666 0.03240643 0.27523002 0.5183903 -0.17193642
-0.0585191 0.038448643 0.25294673 -0.06378433 -0.05515294 0.008163151 0.07700508 -0.0117658125
0.06957931 -0.21480937 -0.122121885 0.17058448 -0.15545493 -0.2545566 0.23686518 0.04973683
-0.2590147 0.05204173 -0.10004654 -0.22411655 0.31863314 -0.07563513 -0.17955066 0.18965134
-0.04551871 0.23127593 0.15864332 -0.31414896 0.1969322 0.045454368 0.14395463 0.005734408
00000000: 2018 41be 8c73 7c3e 0841 0bbf 3aba 743e
00000010: 3edd 86bd e4b3 153e f948 093e d01a 12bf
00000020: c6e0 c2bd e7aa 063c 96aa 70be 475b 5f3e
00000030: 7f27 eebe 746a 7cbe c11a c7bc ee55 90bd
00000040: ea8c 633e 03da 81bb bb41 b1be 8c24 06be
00000050: dd9a 203e d86a 1dbf 6f51 4fbf 7e47 2a3f
00000060: 4707 f53e cbfc a43e 27b0 16bf cbc4 1cbe
00000070: aff9 0fbf dc3e e53d 5149 1e3e 9bab 083d
00000080: 3e30 fd3d bd42 77be 0ef9 35be b817 1e3d
00000090: 9244 193d 2d3e ce3e ced5 47bc 77f6 8f3e
000000a0: 9a94 e43d 119e 19bf 2e58 9ebe 5a27 d33e
000000b0: fecd 71be a4bf 093e 1d91 cfbe 7595 023f
000000c0: 27c9 49be d056 8e3e a2d8 e43d 8600 bc3e
000000d0: ab10 6e3e fcd8 463d b2e9 a1be 80ea f7bd
000000e0: 7dfa b9be a0c0 67be de9c 443f a2b4 d2be
000000f0: 3682 e13d 414a c0bc a5e3 cabe c513 0a3f
00000100: ae66 e13e c2d6 7dbe b08e 02bf 4589 81bd
00000110: f330 073e 4a3d 43bd 2c00 bdbd afe4 983e
00000120: c0f3 00bd eaa3 f23e 3b3a a4bd 1287 b3ba
00000130: cdf5 6b3e 9338 ff3d 0cf0 833e ca52 5cbe
00000140: d6cf 803e 439c 47be d9a6 f03e cb3c 013f
00000150: 5dd4 03bf 9e9e 5fbe ccc8 f5be e0a6 c13e
00000160: a5e1 573d 1751 633e ac13 fbbd 1cd1 b8bd
00000170: 70f6 1ebe 24ef e93a 2242 f6be 102f 7a3d
00000180: 6c90 3ebe ba6f 0bbe 1200 abbe 4e49 503e
00000190: 4a85 a139 be99 25be 0a33 babc 3d98 41bf
000001a0: 4714 8cbe ad5a 4f3e b247 093f 8e6d 323e
000001b0: a3c8 353f 3a72 7a3e d13c e93c f40b 533d
000001c0: e175 e23e 9e5d 8a3e 374a 383d 33c2 36bd
000001d0: c36f 90bd c824 ee3e b85f 0d3e 0074 b0be
000001e0: 6cb4 68bd 6682 3d3e d483 2a3e 0c61 ecbe
000001f0: 12a1 dabe e32b 203e 1df2 31be 0485 f73d
00000200: 712c 95bd c68a edbd 1667 31be 3e73 1bbf
00000210: c6d1 a63e 2fd4 803e acae 79be 5881 0dbd
00000220: c045 753e 41a1 8a3e e0c1 8dbd b891 7dbe
00000230: 0f98 f23e d7d4 5abe 93aa 3fbe 103f 23be
00000240: 535f 933c c307 7c3d ae50 a9bd f710 b8be
00000250: 632a 8d3d 60ee d13e 02ff 7d3e f176 4ebe
00000260: 558a 3bbe 477c 50bd 3e27 edbd 9ebe 7d3e
00000270: 7823 b73e 4d7f 053e 594d 8cba c3b3 883e
00000280: 870d 003e 2206 4fbd 6a67 033e c828 c1bd
00000290: ecc6 863e fa82 33bd 5cb3 a7be c18e 4a3e
000002a0: a9da 28be 2427 e7bd a13c 323e 005f 1d3e
000002b0: 64e9 ddbc 285e 553e 61bd b3bd b46c e5be
000002c0: f9ff 88bd e04c b9bd 0da1 783c fdd1 bcbd
000002d0: e6b6 1fbe e3d9 36be 71a2 ef3d a1ad a03e
000002e0: d128 fa3d 2d68 c5be 8f62 bebe 390b 713e
000002f0: 5e1e 2fbd 16db 993e d0db a13d 5d0f 473e
00000300: 1049 953c 2e56 86be 10f7 d33d 57ac 8b3e
00000310: 3c34 15bc 769e eabd 9478 9e3c f8ba 94be
00000320: 035f ec3e 38a9 d73d 0617 2c3e 18d8 0e3c
00000330: 07c2 a53e 4ab8 993e 689e 993c 1eca bb3d
00000340: 41e4 a43e d85a 403e 87e3 7cbc 2312 98be
00000350: fa27 343e b63c ccbe 9e5a d83d ff93 1bbe
00000360: ced3 20be 50ea 473e cb32 aabd b5e8 ba3e
00000370: 9bbc 043d f3ea 8c3e 3ab5 043f 1a10 30be
00000380: b9b1 6fbd 537c 1d3d 3c82 813e 5ca1 82bd
00000390: 0de8 61bd bdbe 053c d7b4 9d3d 65c5 40bc
000003a0: 997f 8e3d fdf6 5bbe 0a1b fabd b3ad 2e3e
000003b0: 942f 1fbe 3e55 82be c98c 723e d9b8 4b3d
000003c0: 939d 84be b629 553d 33e5 ccbd cf7e 65be
000003d0: e223 a33e 97e6 9abd 21dc 37be f633 423e
000003e0: d471 3abd 99d3 6c3e 6573 223e 22d8 a0be
000003f0: 98a8 493e 5c2e 3a3d d868 133e b3e7 bb3b

linear.bias f4 [18]
-0.06614558 0.1293391 -0.110734805 -0.17746298 -0.49452463 -0.29397583 0.20552367 -0.08492036
-0.2988861 -0.439929 -0.1941167 0.012289903 -0.40917975 -0.2355623 0.19982296 -0.0019518352
-0.116267875 -0.07827638
00000000: 5577 87bd 7871 043e eec8 e2bd dbb8 35be
00000010: 5532 fdbe 0084 96be cc74 523e baea adbd
00000020: 9907 99be 603e e1be 87c6 46be 975b 493c
00000030: 0280 d1be 3e37 71be 649e 4c3e b9d4 ffba
00000040: da1d eebd 5e4f a0bd
