day4/my_rnn_model_1.bin (torch, 106903 bytes, 6 tensors)

rnn.weight_ih_l0 f4 [128, 57]
00000000: fdf4 fdbe e58a 393e 9c6d 7b3e 38b8 753e
00000010: bc62 063e 009a fa3e e2fd 8c3e a79e 5fbe
00000020: ec3f 843e 9fc9 fe3c 297e f83e 2f9d 6b3e
00000030: 0078 a33e 6b39 013e f080 28bf b976 fa3e
00000040: 783a b03e 5805 043f a70d 45be cb23 dcbd
00000050: 8668 45be 2aa4 e2be 0b73 893e dffa c53e
00000060: 243b f33d f7bb 62be 1ce9 8cbe d611 1cbe
00000070: 5e1f 193e 27a0 71bc 3cb9 18bd 1e68 ec3c
00000080: 9f0a 74bd 9f78 40be d4a9 bbbe 6e7d 8cbe
00000090: 7995 81bd a2c1 333e 717b a53c 66d3 9e3d
000000a0: 1c48 f63c a903 5f3d dab0 17be 3b0e 343e
000000b0: c316 07bc 2451 53be ae1b 063d 3a55 a0bd
000000c0: a02b 3c3d 3931 bb3d bbc0 07be bd93 7abd
000000d0: 4107 8d3d ba72 733d 3961 05be 1664 07bd
000000e0: 0158 15bd 087c f8bd c5e7 96be 92ed 28be
000000f0: 8a07 e0bd c497 f23e 192d afbe 5aa7 f93c
00000100: 1235 a0be 544e b93e 3e82 4a3e 428f 73be
00000110: 778b debe 5bdc 413d aea3 7fbd dee3 f6bd
00000120: c4b6 52bd f903 0b3e 3f5f 8f3c e9df 653e
00000130: 748b c03d 1fd8 483e f195 50bf df18 9bbe
00000140: 1643 973e 3717 b9bd cc9f 013e fd8f 35be
00000150: 788b 8bbd 9d38 9f3e 5f32 30be 8540 813e
00000160: 7aee ad3d 6902 78be 129b 283c 508a 9b3e
00000170: c316 1e3e 5422 3dbe c75b ae3d 88a0 69bd
00000180: 0b74 fb3c d4eb b63d 5856 09be 086b 8fbd
00000190: dde0 dbbd b3b7 d8bd 2674 543d 215a 9b3d
000001a0: 9cfa 2f3e 67e8 8dbe f9d9 9bbc 9de7 2e3e
000001b0: 114f 243e c403 403e bee8 7f3d 0265 51bd
000001c0: 64ef e1bc 7afd 043e cbdd 8d3d 3605 afbd
000001d0: e25e b83d dbff 6ebe 5054 b23d 3a89 45be
000001e0: f248 dfbd 8af5 4a3d 7d2b 543d fbc6 2bbe
000001f0: d2af adbe 0cee c5bd f002 9cbc 6a78 b5bd
00000200: f7b7 8b3d 92d5 d5bc 1f55 7e3d ec59 8a3c
00000210: b7b7 ac3e 5f7e b0bd 64b8 933e 0f08 1ebf
00000220: 2b74 96be 79e7 85bd f25c dfbe 89b7 b9be
00000230: 5c18 2e3e 6018 513d 06d7 94ba add8 c63c
00000240: cd3c 3f3d a879 90bd 346f 8fbc 57a4 d43d
00000250: ac21 883d f2d4 71be 52f8 1a3e 0bb0 03be
00000260: 5d98 0f3d caa4 7c3e 96e8 403d 8eff 13bd
00000270: 3ac8 0c3d 37e1 7abd dcbe 983e fc90 0a3d
00000280: b7c4 1b3e 6178 06be a394 ea3d e0e1 433e
00000290: 2d4e 79bd 4f0e 98bc cfe4 24be aa93 e5bc
000002a0: 07a5 ccbd 5bf3 a0bd e394 6c3e 11f4 1abd
000002b0: 9f51 bfbe cb89 cbbd 8ee0 00bf 0d83 e93d
000002c0: 2d03 05bf e9dc 3d3e 6e4d 20be 5c0d 193e
000002d0: 42b3 59be 1ca6 bbbe 0342 2ebe 313c b33b
000002e0: 4632 02be 3444 083f bd20 84be 4867 783e
000002f0: b54c 763d 3d05 aabe a1ea 7b3e b967 373e
00000300: 446b 933d f60f 253e a4c6 143e ae65 f5be
00000310: 6407 eebe 38f2 dd3d dc21 25bc 5384 333d
00000320: baa2 843d f466 2c3e 9699 323c fbae dcbc
00000330: ed19 453e 2934 a2bd c8d6 41be fa98 6b3e
00000340: f64b 81bd 45fb 9cbd 06aa 373e 410d a5bd
00000350: aa6b f8bc 83aa 033e 49ed 2ebc b9ae 0e3e
00000360: 2b67 803e 006e 803d e2f2 5ebe 7916 063e
00000370: d028 423e 45e2 f5bc 6223 51bd 0553 7cbd
00000380: 388c dd3c 5ddf 613d 3a72 85bd 1daf 5abc
00000390: f6e1 18be 59bf 2ebe 3c26 6d3e d4a7 0cbe
000003a0: 6066 63be dc57 163f 0b12 b13d 1d71 a03d
000003b0: 3a2d dcbe 74b2 803e 144d 303f 144d b23d
000003c0: 9ba8 8dbc 5561 93bd 423a 9abd a400 ee3d
000003d0: 9f4c 2a3d 3d87 0d3e 1ef2 ca3d 44ed 803e
000003e0: a5ea a4be db91 f93d 73c8 693e 5dfe c5bd
000003f0: bbb8 7a3e 0b21 78bd 83a2 a1be e44a c0bd
-0.49600974 0.1811939 0.24553531 0.23996055 0.13123602 0.48945618 0.27537447 -0.21837865
0.2583002 0.031102 0.48533753 0.2300918 0.3192749 0.1261956 -0.65821743 0.48918703
0.34419608 0.51570654 -0.19243489 -0.107490145 -0.19278154 -0.44265872 0.26845583 0.38667962
0.118765146 -0.22142015 -0.27521598 -0.15241179 0.14953372 -0.014747656 -0.03728603 0.02885824
-0.05958044 -0.18796013 -0.36653006 -0.27439445 -0.06327338 0.17554334 0.020200463 0.07755165
0.030063681 0.05444685 -0.14813557 0.17583553 -0.008245173 -0.20636421 0.03274124 -0.07828756
0.04594004 0.09140248 -0.13257115 -0.06117605 0.06886149 0.059435584 -0.13025369 -0.033054434
-0.03646088 -0.12133032 -0.294737 -0.16496876 -0.10938938 0.47381413 -0.34214094 0.030475307
-0.3129049 0.36192572 0.19776246 -0.23785117 -0.43465778 0.047329288 -0.062411956 -0.12055181
-0.05144383 0.13575734 0.017501472 0.22448696 0.094015986 0.19613694 -0.8147879 -0.30292413
0.2954337 -0.09037631 0.12658614 -0.17730708 -0.06813711 0.3109788 -0.17206715 0.25244537
0.084927514 -0.2421967 0.010290878 0.30378962 0.1543837 -0.18470126 0.08513599 -0.05703786
0.030694982 0.089316994 -0.13411844 -0.070028365 -0.10736249 -0.10581913 0.05186858 0.0758555
0.17185444 -0.2771637 -0.019024836 0.17080541 0.16045786 0.18751436 0.06247782 -0.05112172
-0.02757997 0.12987319 0.06927069 -0.08545916 0.090024725 -0.23339789 0.087074876 -0.19290629
-0.10902585 0.04955057 0.051799286 -0.16775124 -0.33923203 -0.096645445 -0.01904437 -0.08860858
0.06822198 -0.026102815 0.062092897 0.016888581 0.33733913 -0.086178534 0.28851616 -0.61731046
-0.29385504 -0.065382905 -0.436256 -0.3627284 0.1700148 0.051048636 -0.0011355586 0.024273241
0.046688844 -0.07054454 -0.01750908 0.10382908 0.066470474 -0.23616388 0.15133789 -0.12860124
0.035057414 0.24672237 0.04709681 -0.036132388 0.03437064 -0.061249938 0.29833114 0.033829674
0.1521176 -0.13131858 0.114541315 0.19129133 -0.06086557 -0.01856151 -0.16102909 -0.028024513
-0.09992414 -0.07858916 0.23103671 -0.037830416 -0.3736696 -0.09938391 -0.50342643 0.11401949
-0.5195797 0.18541302 -0.15654537 0.14946502 -0.21259788 -0.3665017 -0.17017369 0.005469822
-0.1271449 0.5322907 -0.25806227 0.24258149 0.060131747 -0.33207121 0.24601223 0.17910661
0.07198194 0.1611937 0.145289 -0.47929138 -0.46490014 0.10837215 -0.0100788735 0.043827366
0.0647635 0.16836149 0.010900876 -0.026938906 0.19248171 -0.07920105 -0.18929589 0.23007575
-0.063133165 -0.07665113 0.17935953 -0.080591686 -0.030324776 0.12858014 -0.01067669 0.13933839
0.2507871 0.06270981 -0.2177234 0.1309451 0.18960881 -0.03001512 -0.051059134 -0.06160261
0.0270444 0.055144656 -0.065159276 -0.013347414 -0.14929947 -0.17065181 0.23159117 -0.13735896
-0.22207022 0.5872781 0.086460195 0.07834075 -0.43003255 0.2513615 0.6886761 0.08706108
-0.017292311 -0.07196299 -0.07530643 0.11621216 0.041576978 0.1382112 0.099094614 0.2518102
-0.3221027 0.12186023 0.22830372 -0.096676566 0.24484532 -0.060578387 -0.315693 -0.09389284

rnn.weight_hh_l0 f4 [128, 128]
00000000: f697 9abd dc89 6bbd 0215 56bd cf3e 163d
00000010: 64ca a1bc e312 ffbc d19f f43d 605f d3bb
00000020: 26ae 173d 1f18 27bc 1944 8f3c bc6d 40ba
00000030: 9a0c ccbc 283d 72bd a7e7 78bc 1b99 8e3d
00000040: 4ac5 103d 3ad9 1a3d e01d ffbc b0bb 0dbe
00000050: cf38 cfbd 6e41 0b3d 275c 5b3c b72e e33d
00000060: 62e7 7b3d c6e2 6ebd f6ab d53c 8a60 293c
00000070: f51c f6bc eae6 8abc 188f a03d a698 903c
00000080: 4433 aebb 2363 47bd b56d 793d c83d 0ebc
00000090: 27d8 d63c 6d21 72bd b5ef 203c 8a61 17bd
000000a0: 583d bf3c c26e c73c b755 c63c e12b 86bb
000000b0: 3282 3bbd 7bbf 8d3d a619 cfbd 02cf 49bd
000000c0: d5bb 113b 90cc d1bb ed03 203d 2a77 203d
000000d0: 3d38 a83c b6d7 9fbd abd3 f83a b5a0 0bbe
000000e0: 6dd9 a5bd acc3 2a3c 7277 cc3c e5f0 623d
000000f0: 1bbd 273d 174c 793d d3eb 19bd 88d1 3f3d
00000100: 8c79 e3bc f6e1 44bd 943c 003c daae ae3d
00000110: 308d efbd 18af 363c fe6d 14bd 5d89 a03c
00000120: af7a 913c bebb 96bc 3ec5 75bd 5309 11bd
00000130: dd55 d8bc fe91 01be 6ea7 7c3c 5cff 6abd
00000140: 3863 bf3d e832 4bbc 7e30 e1bc 79ee 69bc
00000150: 1293 d33b 7017 953d c457 3bbc cad7 0c3e
00000160: 256a 8abd 9214 db3d e471 0dbc 51b1 b33b
00000170: 8b45 d7bc 166e abbd c407 713c 91dd 57bc
00000180: b9de 123d 1e04 223d ce62 aabd a604 56bc
00000190: c15d eb3d 6643 1cbd c855 6c3d 9140 db3d
000001a0: dca1 493c b568 7abd 2bae c9bd 20e9 3f3d
000001b0: a7fa 573d b213 18bd affc 3d3d 362c 7b3c
000001c0: 03fb 6dbc 323a f33d 412a fe3c 41a7 db3b
000001d0: 4d77 013d fe93 05bd 9c1d ccbd 45f2 df3d
000001e0: 513c e7bd 72b2 3dbd 06d4 9f3d 7505 383c
000001f0: ecb4 863c c0d7 afbc 9a7f d9bc df3f 8f3d
00000200: 18d6 9bbc e01c 98bd 124b ac3c aed8 0fbc
00000210: 2a14 823c 92fe e8bd fed0 8dbd 5172 b93d
00000220: 32a7 19bc b14f 3cbb 60b2 65bd 66cf 04bd
00000230: bd55 89bc b1f4 973d 2db1 51bd c781 083c
00000240: beff 5a3d a60d b33d 1ee7 143d 8bf5 983d
00000250: 9a23 493d f09e e13d f6eb 53bd 2e73 00bc
00000260: af35 07ba b434 403d 6a4b 093d 7300 133e
00000270: 79cd 963d bf36 1f39 61d6 c53c 7e09 3ebc
00000280: ed7b 533d 5f9b 423d 2936 703d 7c26 15bd
00000290: 6840 02bd 64c3 c5bc f708 d2bc d83f 8ebd
000002a0: 5531 933c 0606 cf3b 4687 76bc bdf1 1dbc
000002b0: cf27 8e3d 0e94 32bd a778 04bd 3ba9 2ebd
000002c0: 8dbf f6bc c2b9 b3bd 0172 49bb 92d5 1abd
000002d0: 5870 d43c 063e 963d e506 023c 51f3 ee3d
000002e0: fc86 60bd 9a0a 7c3d 0178 953b 43f2 db3d
000002f0: f059 a1bd 0ef9 473d a31c f5bd bf4f 0b3d
00000300: aa77 e2bc ef89 b13d f22b 4ebd 0db9 e43d
00000310: a924 813c b901 09bd 2da9 71bd 9486 2e3d
00000320: 2f63 7dbd 8d8b 6bbb 0f85 85bd 0a01 073d
00000330: 16b4 113d 1d38 773d f6df a0bd 3846 31bc
00000340: 3389 283d bd8c 13bd b626 8f3c 7c7e 883d
00000350: 30dd 1d3d 75e5 1e3c 9b7a 8bbd 2831 32bd
00000360: ddad 48bd d9a6 c83d 6b3a 11bc 7c10 1ebd
00000370: a5cb 71bc 1389 e83c 7656 29bd 9263 3abb
00000380: ee5e 1f3c 1aed c83d 632e 2d3e 94ab 323d
00000390: 339a c63d c347 bf39 25f8 7bbd 4d08 c8bd
000003a0: a5d1 d43d c071 243c c8b3 193b 7b3a 60b9
000003b0: 3008 aa3d bf4b c4bd a683 113d 909b 39ba
000003c0: c59d 063b 8025 64bd 8d09 6cbc 5e94 33bd
000003d0: 4607 683d 4d38 be3c 8d27 39bc 7545 dfbc
000003e0: 6bbf 8d3d 7538 993c a7ef a5bc 1fd1 9ebd
000003f0: 3dcd c43d 55bb 2abd a3ed 42bd 1116 b23d
-0.075485155 -0.05750452 -0.05226613 0.036680993 -0.019749828 -0.031136936 0.11944545 -0.0064505786
0.037031315 -0.010198622 0.017488526 -0.00073405704 -0.024908353 -0.059140354 -0.015191949 0.06962796
0.0353444 0.03780482 -0.031142175 -0.13841128 -0.10118257 0.033997945 0.01338867 0.110928945
0.06149996 -0.058321737 0.026082974 0.010337958 -0.030043105 -0.016955812 0.07839793 0.017650913
-0.00531617 -0.04867853 0.06089564 -0.008681722 0.026226116 -0.05911391 0.009822776 -0.036958255
0.02334468 0.024344806 0.024210794 -0.0040945862 -0.04577846 0.069212876 -0.10112314 -0.049269684
0.00222372 -0.0064025596 0.039066244 0.039176144 0.020534629 -0.078048155 0.001898398 -0.13635524
-0.08098111 0.010422628 0.0249593 0.055405516 0.04095183 0.06086358 -0.037578415 0.046830684
-0.027767919 -0.048067056 0.007826943 0.08529444 -0.11696851 0.011150144 -0.03623771 0.01959675
0.017758695 -0.01840007 -0.060002558 -0.035409283 -0.02640813 -0.12653348 0.015420778 -0.057372436
0.09345096 -0.012402274 -0.027488943 -0.014278048 0.006456741 0.07279861 -0.011434499 0.13754192
-0.06758527 0.10697283 -0.008633111 0.0054837842 -0.026278278 -0.083706066 0.014711324 -0.013175384
0.035856936 0.039554708 -0.08319627 -0.013062632 0.114924915 -0.038150214 0.057698995 0.107056744
0.012306657 -0.061135013 -0.09847673 0.046853185 0.052729275 -0.037128158 0.046383556 0.015330365
-0.014525178 0.11876334 0.031026008 0.006703288 0.031607915 -0.03261184 -0.09966585 0.10934881
-0.11290801 -0.046312757 0.07804112 0.01123177 0.016443692 -0.021465182 -0.026550103 0.06994604
-0.019022986 -0.074273825 0.02103189 -0.008779688 0.015878756 -0.113766804 -0.06924628 0.09055007
-0.009378241 -0.0028734023 -0.056078315 -0.032424353 -0.016764516 0.07419718 -0.05119436 0.008331723
0.05346655 0.087428376 0.036353223 0.074687086 0.049106218 0.11016643 -0.0517387 -0.007839961
-0.0005157841 0.04692526 0.033519186 0.1435564 0.073634095 0.00015183816 0.024150075 -0.011598943
0.051631857 0.047511455 0.0586454 -0.036413655 -0.031799704 -0.024141021 -0.02563904 -0.06945771
0.01796786 0.0063178567 -0.0150469 -0.009640154 0.06941187 -0.043598227 -0.032341626 -0.04264186
-0.030120635 -0.08775665 -0.0030738118 -0.037801333 0.025932476 0.07336049 0.007936214 0.11667503
-0.05481623 0.061533548 0.0045614247 0.10739567 -0.07878482 0.0488215 -0.11968353 0.0340116
-0.02764495 0.08668887 -0.05033488 0.11168108 0.015764551 -0.03344891 -0.05899923 0.042608812
-0.061862167 -0.0035941333 -0.065195195 0.032959975 0.035572134 0.06035625 -0.07855217 -0.010819964
0.04114647 -0.03602289 0.017474514 0.0666475 0.03854102 0.0096982615 -0.068104945 -0.04350391
-0.048993934 0.09797449 -0.008864026 -0.03858994 -0.014758025 0.028385675 -0.04134222 -0.0028440696
0.009727223 0.098108485 0.16912226 0.04362066 0.0969738 0.00036483826 -0.061515946 -0.09767208
0.10391549 0.010036886 0.0023453105 -0.0002138409 0.08302343 -0.0958476 0.03552594 -0.00070803706
0.0020540815 -0.055699825 -0.014406574 -0.043842666 0.05664756 0.023220206 -0.011300934 -0.0272548
0.06921276 0.018703679 -0.020255877 -0.077547304 0.096094586 -0.04168256 -0.04758991 0.08695615

rnn.bias_ih_l0 f4 [128]
00000000: 5f98 d23c 33f4 91bd 0f52 19bd df35 b33b
00000010: 9e1d 9c3d e962 94bb 0493 97bc 51e7 4cbd
00000020: 64ae 22bd d022 cabc 1ddc 0f3b e4b5 133d
00000030: 9ca9 f3bc a346 0bbd d721 27bd efcb b43c
00000040: 8e3b fa3c c37f cf3a 8ac1 93bd cddc 323d
00000050: e7a4 743d bae6 5dbd 08fb 92bc 321e b93a
00000060: cfd9 9d3b f5d0 5b3d e696 64bc 37e7 f83d
00000070: 2326 4ebd 69d5 fc3c 9860 89bd c258 473d
00000080: 4a87 a2bc 8315 63bd 11f3 2cbd fc1a 09bc
00000090: 8c58 3c3d f046 a53d b6ea 7d3b cb94 33bd
000000a0: 0da3 173d 582c e9bc 02f4 cebd 4b1f 853c
000000b0: 2e2f 803c 5687 b53b dca9 87bd 86d0 313d
000000c0: 5c08 6c3d 25a5 1abb 07d3 683d d5e4 6abc
000000d0: 6ee2 463d f2f5 b43c 5a5e 02be 0c09 9ebc
000000e0: 9b17 2cbb 8c49 84bc 3ee5 173d d0af f43c
000000f0: 0441 01bc 8b5f 4cbd 45e4 96bd 68a0 1fbd
00000100: c7c2 b3bd b486 12bc 7d3b a5bc 93db 25bd
00000110: 41ab 04bd 32e4 fa3c 022e 18bd 39b4 af3d
00000120: c528 9dbc 9fd4 943b b8a1 80bd 68b1 84bd
00000130: fd41 593d d3bd 97bc 8a93 a33d e2ed 3fbc
00000140: b013 ad3c 63e3 6f3b dcaa 873d 608d 7abc
00000150: d385 d63c 022f 233d 9bb5 f8bc 3d61 ebbc
00000160: 0b17 023c 61a3 c53b 3fa2 553c 5ca3 013c
00000170: bc03 10bd 0539 41bd d6fb 1fbc d83b d83c
00000180: 8ff5 ccbc 53d9 483d bd72 96bc f3b4 f9bc
00000190: 84ec 413d 4f50 043e e7ab 09bc 222c 3d3d
000001a0: 086b a33d 5e93 ac3b 62fe 2dbd 40e6 253d
000001b0: bb64 8fbd eb27 4dbc 36f1 8bbb f1ae b13d
000001c0: 1731 91bd be7b bebc 7185 723d 6dec fb3c
000001d0: b25f 0c3d 6766 febc aa3c 4dbd 7ef3 cc3c
000001e0: aee7 89bc 4eb6 b7bc a4af 29bc 3306 9a3d
000001f0: 8fc1 c9bc 50d2 caba 9688 68bd 6b2d 753d
0.025707422 -0.071266554 -0.037431773 0.0054690684 0.076228365 -0.0045283926 -0.01850272 -0.050025288
-0.039717093 -0.024674803 0.0021951266 0.036062136 -0.029743962 -0.03400291 -0.040803757 0.0220699
0.030545976 0.0015830923 -0.07214649 0.043667603 0.059727576 -0.054175116 -0.017941967 0.0014123379
0.0048172246 0.053666074 -0.013951993 0.12153476 -0.05032934 0.03086348 -0.06707877 0.04866863
-0.019839901 -0.055440437 -0.042223994 -0.00836825 0.045982882 0.08070171 0.0038744635 -0.043843072
0.03702073 -0.028463528 -0.101051345 0.016250273 0.015647497 0.005539815 -0.06624195 0.043411754
0.05762516 -0.002359697 0.056841876 -0.014336784 0.048555784 0.022089932 -0.12731305 -0.019291423
-0.0026259187 -0.016148351 0.037083857 0.02986899 -0.007889036 -0.049895804 -0.07367758 -0.038971335
-0.08777385 -0.008943249 -0.020169968 -0.040492605 -0.032389883 0.03062639 -0.03715325 0.085792966
-0.01918448 0.004541948 -0.062808454 -0.0647915 0.053041447 -0.018523132 0.07987125 -0.0117144305
0.021127552 0.003660404 0.06624386 -0.0152924955 0.02618686 0.039839752 -0.030360034 -0.02873289
0.007940064 0.006031439 0.013039171 0.007912483 -0.03515981 -0.04717352 -0.009764632 0.026395723
-0.025019435 0.04903538 -0.018365258 -0.030481791 0.0473447 0.1292126 -0.008402801 0.046184666
0.07979399 0.005266591 -0.042478926 0.040502787 -0.07001635 -0.012521724 -0.004270698 0.086759456
-0.07089441 -0.023252364 0.05920929 0.030752385 0.03427095 -0.031054689 -0.050106682 0.02501845
-0.016834106 -0.022425797 -0.010356817 0.07520714 -0.024628429 -0.0015474055 -0.056770884 0.059857767

rnn.bias_hh_l0 f4 [128]
00000000: 3954 a43d 815e 4d3c c508 c6ba 1336 233d
00000010: d159 883c f6d4 d1bc 5868 1d3d 66b3 7dbc
00000020: 37ea d03d c68f 8ebc 03fc 85bc 2f65 693d
00000030: b186 0abd 63d2 01bd 7c9d 95bc 2ba3 2fbd
00000040: dfc5 033d 5a01 91b9 096a ea3c 39df d03c
00000050: 9d46 213d cc05 3b3c 5648 903d d22e a3bc
00000060: 5717 c23c 55b7 81bd fbf2 24bd 7c61 393d
00000070: f80b c53d 69f0 263c 2a22 5f3d 19cf 0cbd
00000080: 1472 9abb ac7e 2dbc 34cb 4ebd 40d3 ccbd
00000090: 5ee9 bf3c 1bb3 1bbd 3683 23bd 4ab3 963d
000000a0: 8e4e 1e3d d895 d53c d322 223b 20cb 57bd
000000b0: f1d8 dfbb 1652 b23c bd23 2a3d 2960 7dbc
000000c0: c248 3abd 44c3 94bc 3db7 f6bc 265e a8bc
000000d0: 8300 dbbc 1255 44ba 6112 d33c cb7e 273d
000000e0: ccc6 173d 48cb 7abc 2acc a0bd 5afa 6abc
000000f0: 2a4e a43c 5b0e 843d ed4c d2bd f444 6d3c
00000100: 3a46 04bc 9c15 28bc db43 39bd 5cb9 64bd
00000110: c285 70bd 3d1d 13bd 1219 393d 34e2 6fbb
00000120: 0798 86bb c5e7 2cbd 0424 183c d805 34bd
00000130: e64f 57bd c30d 4b3d 96b4 c73d 524d 27bc
00000140: 3170 413d fa4b b53d 1616 9f3b 28a8 0e3d
00000150: 5285 163d d2dd a2bd 7908 3e3c 5e97 673c
00000160: 142e 1a3c cc01 243d ea5e 313d f7eb 2fbd
00000170: dd49 ecbc b652 d33c 96b4 75bd 879d 7f3d
00000180: 4f0d 0b3d 0ece cc3d 8c2a 90bd 3ddb 91bc
00000190: 302f 383d 2563 6d3d 0553 f3bc b3b7 36bd
000001a0: 52de b93b 4201 27bd 641d 433d 93cd 083d
000001b0: 8034 003d 8947 dc3c dddf 17bd 3656 87bd
000001c0: 0f40 33bd ae27 95bc 2cae 25bd 7be6 d2bc
000001d0: 8998 c5bc 8ea9 133d ebce 97bd 7ec8 9d3c
000001e0: 992a 57bd 1569 11bd 39f6 c93c fb8d ec3b
000001f0: 1e24 21bd 6a3c 9abc e4d6 84bd 6b3d fbbc
0.08023877 0.0125347385 -0.0015108815 0.03984649 0.01664439 -0.025614243 0.038429588 -0.015484666
0.10200923 -0.01740254 -0.01635552 0.05698126 -0.033819858 -0.03169478 -0.018263571 -0.04288022
0.032171126 -0.00027657562 0.028615015 0.025497066 0.039373983 0.011414956 0.07045047 -0.019919787
0.02369277 -0.06333796 -0.040270787 0.045258984 0.096214235 0.010189154 0.05447594 -0.03437719
-0.004713306 -0.010589283 -0.05048676 -0.1000123 0.023426708 -0.038012605 -0.039920054 0.073584154
0.038649134 0.026072428 0.0024739995 -0.05268395 -0.0068312814 0.021767657 0.04153799 -0.015464821
-0.045479544 -0.018159516 -0.030116672 -0.020552706 -0.026733642 -0.0007489483 0.0257656 0.040892404
0.03705482 -0.015307255 -0.07851441 -0.014341915 0.020056803 0.064480506 -0.10268579 0.014481772
-0.008073384 -0.010259058 -0.045230728 -0.055840835 -0.05872131 -0.035916556 0.045189925 -0.0036603333
-0.0041074785 -0.04221322 0.009285931 -0.043950886 -0.05256643 0.04957367 0.09751241 -0.010211306
0.047226135 0.08852382 0.004854928 0.034828335 0.036748238 -0.07952465 0.0115987 0.01413521
0.0094104 0.040040776 0.043303408 -0.042949643 -0.028843815 0.025796276 -0.059986673 0.06240609
0.03394824 0.10000239 -0.07039365 -0.017804736 0.044966877 0.05795588 -0.029702673 -0.044608783
0.0056722546 -0.040772684 0.04763545 0.033399176 0.031300068 0.02688958 -0.037078727 -0.0660824
-0.043762263 -0.018207397 -0.040449306 -0.025744667 -0.024120586 0.03605037 -0.07412513 0.019260641
-0.05253086 -0.035500605 0.02465354 0.007219074 -0.039341085 -0.018827636 -0.064863 -0.030668935

linear.weight f4 [18, 128]
00000000: f843 103b 7a85 6b3e 91b1 b33c c15c 823e
00000010: 6767 2fbe d5fc b33b 3580 e0bc 3f18 eabd
00000020: ec69 4ebe 6823 5f3e a6a2 48be 06c5 04bd
00000030: dbc3 6b3e e4d9 ab3d b27d 683e 4882 073c
00000040: 0044 b3bd 1e22 82bd b3ed 7e3e d45c 91be
00000050: 74b3 04be 6c30 383e 2752 afbd 41eb 14be
00000060: fed5 c8bc efcc dd3a 3398 933d c7e3 cabe
00000070: 338a 2e3c e784 22be 60b8 4dbe a92c c6bd
00000080: 7171 65be 0da6 a6bd 1f59 393d 360b 50bd
00000090: 648e 36be fb2f aabd ce63 033c cd1f 3d3c
000000a0: 43fe f43d 9ccb 1ebe eb75 c83e 1566 72bd
000000b0: 92e1 7d3e 4231 3ebc 62fe 193e 2854 863e
000000c0: 30bd cc3d 8119 393d e114 ec3d 665d 833c
000000d0: ce25 cfbd 13e6 953d 39c5 bb3e 09d4 ee3e
000000e0: d691 3ebe 56d0 df3c 0484 823e 9df6 adbc
000000f0: 8377 cc3d 8d07 f9bd c2ba c03d 2ef4 87be
00000100: fab0 793c 7518 683d 0802 c63d 9351 083e
00000110: 1bab 943e 23fa 55bb 1c59 293d a462 95be
00000120: 3d70 8bbd 9fcd 25bd 25fc 8ebd 95b7 193e
00000130: 73da 20be 61c6 5d3d d484 79bb fe11 0f3d
00000140: 4897 b0be dce3 8fbd 75b6 f4bc ae0b 35be
00000150: 476b 82bd 7fbb c4bd 3014 153e b11b 43be
00000160: a2b6 9cbd 9451 4fbe ef6c b6bd e1a6 553e
00000170: 7b4e 7d3e c71c a33e 5dd5 1c3d 4dee 36be
00000180: 76cb 1fbe f83c b8be 74ae fa3d 0b24 cc3c
00000190: 050b debe b880 44be 1f1b b83d 15e3 1ebd
000001a0: 0481 6fbd 17fc f03d c858 3ebc c70b f3be
000001b0: c11f 113e 4612 7a3c 0cf8 17bb 227e 323a
000001c0: ca70 5cbe 3dd4 9bbe 8620 7b3d c37d c13d
000001d0: dcc4 8abd a25f 1f3d 0902 013e 7087 79be
000001e0: 298d 12bd 62b2 4d3e 07e1 dc3d 96a9 c6bd
000001f0: 417b ce3d 24b8 113e 604a eb3d 974c 6fbe
00000200: 8a73 b23d dd87 ea3c e6b3 8ebc eb58 cebd
00000210: a4b1 053d 4739 c9bc 5a40 ff3d 637b b6be
00000220: 463f dc3d 96d0 cfbd bf2d f93d 1ef2 55bd
00000230: d5fb 9c3c a9b8 cdbd 9590 37bd 922f 68bc
00000240: 6ca9 7cbd a3cf 323d 03a1 10bc 35b9 2f3d
00000250: 7fa1 b13c af1e 503d a8cb dfbc b3ce 363e
00000260: 9a47 423d 1ceb 3ebc 63ad 8e3b 3ae5 933e
00000270: 7609 323e df17 0a3e aea9 a43d c105 0bba
00000280: f53c 1ebe 0462 fa3b 997c c2bd c65c 52bd
00000290: b0e1 1a3d 718e e7bb fbab 0cbd d49e 863d
000002a0: 1aff 8b3b 6ff0 323e 3229 30be 829f 0c3d
000002b0: d012 86bd aec3 163d 2744 91bd 6b9c 24be
000002c0: db8c 25bd 34a8 7abd afb5 a83c 4265 b33d
000002d0: 27fe a43b cd8b 2bbd 956e b5bc b125 65be
000002e0: a985 a4bd 5a22 b13c f2c4 f83d 3cea 823d
000002f0: 832f cbbd 71aa 893d 736a 74be 739f fe3d
00000300: fce9 5fbd e587 c6bd 8cad 2e3d 69e0 4bbe
00000310: 6548 a4bd 9b8b 7bbd c27a 883b 3451 3c3e
00000320: c00d 13bd bcc7 dc3c 24ae de3d 524e 173d
00000330: 1bc6 f13d be60 89ba 5b1d 1fbc 878d c9bc
00000340: dd82 42bd e248 13bb 1da1 cebd db38 b4bb
00000350: 95b8 08bb ca8b 1cbd 5809 bfbc a5ea dabc
00000360: 4e0b 823d f9a6 013e bfba e33d ff9c 12bd
00000370: d146 46bd 141f 153e 721c 3b3c f13f 8e3d
00000380: 69a0 c7b9 2d8f 853e 9930 5cbe 2785 c53c
00000390: 01fc 993e e525 6f3e a83a b5bc c59c 013e
000003a0: 30f0 6dbc 8630 b9bd 1e38 883d 050f 3f3e
000003b0: cd5e 1fbd 9942 5fbd 9005 80bd 3915 863d
000003c0: a5de c83c ccf6 aa3c 729f 00bd 0d8d babc
000003d0: 6490 20bd c445 01bc a65f bdbe fdd4 873c
000003e0: 5984 173e 0bfd dabd 4e64 a93c 5aaf 503e
000003f0: 4edb c6bd baa9 53be ff5e 1a3e 9d09 e1ba
0.0022013169 0.23000136 0.021935256 0.2546139 -0.17129289 0.0054927864 -0.027404884 -0.11430406
-0.20157593 0.2179085 -0.19593295 -0.03241446 0.23023932 0.08391169 0.22704199 0.008270808
-0.08753204 -0.063541636 0.24895363 -0.28391135 -0.12959081 0.17987221 -0.08560591 -0.14542867
-0.024516102 0.0016922037 0.07206764 -0.39626905 0.010653066 -0.1587101 -0.20089865 -0.09676487
-0.22406556 -0.081371404 0.045251008 -0.05079194 -0.17827755 -0.08309933 0.008019401 0.011543226
0.11962559 -0.15507358 0.39152464 -0.059179384 0.2479308 -0.011608424 0.15038446 0.2623608
0.09997022 0.045190338 0.1152742 0.016035747 -0.101146325 0.07319274 0.36673906 0.46646145
-0.1861032 0.027321022 0.25491345 -0.021235758 0.099837326 -0.12159643 0.09410621 -0.26553482
0.015239948 0.05666395 0.09668356 0.13312368 0.29036793 -0.0032650314 0.041344747 -0.2917682
-0.06808517 -0.0404793 -0.069816865 0.15011437 -0.15708332 0.054144267 -0.0038073556 0.034929268
-0.34490418 -0.070258826 -0.029872159 -0.17680237 -0.06368118 -0.096060745 0.14558482 -0.19053532
-0.07652022 -0.20245963 -0.08907496 0.2086444 0.24736969 0.31857893 0.038289417 -0.17864342
-0.15604958 -0.35984015 0.122403055 0.02491953 -0.43367782 -0.19189727 0.08989548 -0.03879078
-0.05847265 0.11766832 -0.011617847 -0.47469923 0.1417227 0.015263146 -0.002318862 0.00068089564
-0.215274 -0.30435362 0.061310314 0.09447815 -0.06775829 0.038909562 0.12598433 -0.24368072
-0.035779152 0.20087579 0.10785108 -0.09700315 0.100821026 0.142304 0.11488795 -0.2336906
0.087134436 0.028629238 -0.017419767 -0.100755535 0.032640114 -0.024563445 0.12463446 -0.35641012
0.10754256 -0.101472065 0.121669285 -0.052232854 0.019163052 -0.10044987 -0.04481562 -0.014171498
-0.06168501 0.04365505 -0.008827451 0.042901237 0.021683453 0.050810512 -0.02731879 0.17852287
0.047431566 -0.011652734 0.0043541654 0.28885823 0.17386422 0.13485669 0.08040176 -0.00053032866
-0.15452941 0.007641079 -0.09496421 -0.051358007 0.03781289 -0.007066541 -0.0343437 0.06573263
0.004272354 0.1747453 -0.17203215 0.034331806 -0.06546557 0.03680771 -0.07093077 -0.16075294
-0.040417533 -0.061195567 0.020594446 0.08759548 0.00503518 -0.04188137 -0.022147456 -0.2237766
-0.08033306 0.021622825 0.12146939 0.06392333 -0.099211715 0.06721962 -0.23868732 0.12432756
-0.054666504 -0.096938886 0.042645976 -0.19909824 -0.08021621 -0.061412435 0.0041650245 0.18390352
-0.035901785 0.02695071 0.108730584 0.036939926 0.11805364 -0.0010481102 -0.009711589 -0.024603618
-0.047488082 -0.0022473861 -0.10089324 -0.0054999418 -0.0020861973 -0.03821925 -0.023319885 -0.026723215
0.063498124 0.12661351 0.11119603 -0.035794254 -0.04840738 0.14562637 0.011420356 0.069457896
-0.00038075753 0.26085797 -0.21502914 0.024111344 0.30075076 0.233543 -0.022122696 0.12657459
-0.014522597 -0.09042458 0.066513285 0.18658073 -0.03890877 -0.05450687 -0.06251061 0.06547017
0.024520228 0.020869635 -0.03140206 -0.022772336 -0.0392002 -0.007890169 -0.36987036 0.016581053
0.1479658 -0.10692795 0.020677712 0.20379391 -0.09709798 -0.20670214 0.150753 -0.0017169003

linear.bias f4 [18]
00000000: 4548 67be 6559 b33e 4447 563b 07fc 4cbe
00000010: 292b c3be ad80 a8be 3aeb d5bd 0741 82be
00000020: 7e79 82be 4edb cebe c3b0 a6be e109 2fbe
00000030: b058 f4be 2e39 dbbe 02b2 cc3e c89d c73a
00000040: e111 0bbd 55b2 a7bd
-0.22586162 0.3502914 0.0032696286 -0.20018016 -0.38118866 -0.32910672 -0.104452565 -0.25440237
-0.25483316 -0.4040169 -0.32556733 -0.17093612 -0.47723913 -0.42817062 0.3997956 0.0015229518
-0.033952598 -0.08188311
