day11/my_model_1.bin (torch, 7207 bytes, 2 tensors)

fc.weight f4 [2, 768]
-0.016184002 -0.009738961 0.030154524 0.03598851 -0.045961488 0.04109536 0.050144676 -0.023707503
0.021394437 0.011081751 -0.016325865 -0.021687452 -0.15839401 0.030464081 0.00013749948 0.013715016
0.040134933 0.024635458 0.042461626 -0.028917765 0.028080206 0.03358113 -0.0460183 0.009358967
0.027382895 -0.017554678 0.042754985 0.11729437 -0.002712345 -0.013838557 -0.012728163 -0.002202263
0.011510064 0.025543444 0.032470644 -0.05559221 -0.007973348 0.024799623 -0.09241415 0.007127462
-0.02963441 0.030593034 0.07958308 0.00078928226 0.038221836 0.057117634 -0.018475197 -0.0069675734
0.031775706 -0.011086573 -0.03454434 -0.03309822 -0.0018979224 0.009252145 -0.004993902 -0.030043522
0.033002447 -0.0014681286 -0.014787376 0.015364978 -0.030904986 -0.012877426 -0.027875701 -0.017218573
-0.020279642 -0.012515625 -0.0021453241 0.034653064 -0.0025248833 0.017917471 0.016443009 -0.0092692515
-0.01684717 -0.0033118576 0.029274283 -0.0001307074 -0.032290213 0.07332132 0.006562476 -0.04269001
0.018401515 -0.03111707 0.0075919353 0.011151216 -0.02312154 -0.00943158 0.03452005 -0.040646445
-0.024289742 0.0251345 -0.024987582 0.035852093 -0.008664301 0.027263347 -0.008529202 -0.02338984
-0.0012670461 0.024877273 -0.0051982324 0.011538182 -0.07113699 0.008883563 -0.028427714 -0.0037274316
0.057418842 -0.023141904 -0.002382425 0.019701494 0.017400136 0.012128939 -0.0070099863 0.058327522
-0.012853167 -0.00694296 -0.009932268 -0.0072389455 0.00043402365 0.08281224 0.0036145372 0.004096056
-0.051156905 -0.040244814 0.03576477 0.0146286 -0.011045427 0.014275492 0.015622136 0.025489045
-0.0296396 0.008980539 0.03324545 -0.020202314 0.0022328617 0.032724485 0.07111602 -0.02552853
0.04704315 0.03748051 0.017293451 -0.004573272 -0.013324905 0.06725556 -0.028838363 0.0059437817
-0.014854691 0.02341358 0.010613871 0.012492784 -0.011675814 0.013732166 0.056908004 0.015369631
-0.044376805 -0.0065975348 -0.002043148 0.03661445 -0.0051537408 -0.0038627253 -0.02015426 0.005697878
-0.046441264 -0.040911067 0.004994381 0.04001852 -0.0059490325 0.024893064 -0.05778381 -0.014700098
0.047415912 -0.09562086 -0.018205576 0.015449427 0.020673886 -0.02030806 -0.0041300124 0.033259295
0.07377422 -0.02631294 0.09083733 0.03505305 0.100858115 -0.040184874 0.015294294 -0.08214879
-0.07836658 0.0022121174 -0.0023069018 -0.009904999 0.026975287 -0.02896686 0.13620679 0.019131491
-0.028832542 -0.03099661 0.0036634025 0.044896025 -0.039731834 -0.056836788 0.035717662 -0.079332374
0.009271283 0.004988906 0.028925791 -0.018090779 0.017753711 -0.02809826 -0.036217403 -0.029354569
0.0053085634 0.03640373 0.03152983 -0.021558838 -0.028080562 0.02218768 -0.05313816 0.004272207
0.008960773 -0.012792104 0.057398953 -0.00079031894 0.009065572 -0.023146491 0.00027944922 -0.002236257
-0.023977384 0.018831471 0.0043627704 0.022802336 -0.013835012 -0.006951441 0.014703301 0.022406705
0.009550426 -0.012896577 0.06528655 0.011834043 0.007937597 0.024830027 -0.013417929 0.039472733
-0.017425526 -0.0054121953 -0.0016049943 0.036574375 -0.029804258 -0.0051581627 -0.010460978 -0.020535333
-0.016127318 -0.014567706 0.007867153 -0.092765965 0.037025545 0.01463666 -0.0036220832 0.011399168
00000000: 5094 84bc 2a90 1fbc 9f06 f73c b068 133d
00000010: 1d42 3cbd 9c53 283d 8164 4d3d 3d36 c2bc
00000020: 6343 af3c 3c90 353c d2bd 85bc e2a9 b1bc
00000030: 0a32 22be cf8f f93c bc2d 1039 f2b4 603c
00000040: 8764 243d 4dd0 c93c 3eec 2d3d f3e4 ecbc
00000050: 7608 e63c 5e8c 093d af7d 3cbd 5a56 193c
00000060: 1852 e03c d4ce 8fbc da1f 2f3d 0838 f03d
00000070: 99c1 31bb 1dbb 62bc c989 50bc d853 10bb
00000080: b594 3c3c 7c40 d13c f0ff 043d a8b4 63bd
00000090: a5a2 02bc 9428 cb3c a143 bdbd 7c8d e93b
000000a0: ddc3 f2bc 3e9e fa3c 74fc a23d d6e7 4e3a
000000b0: 808e 1c3d 2ef4 693d 4c59 97bc 3e50 e4bb
000000c0: 3e27 023d 75a4 35bc 5e7e 0dbd 0092 07bd
000000d0: b5c3 f8ba 4f96 173c e3a3 a3bb d51d f6bc
000000e0: 932d 073d 396e c0ba c046 72bc 64bd 7b3c
000000f0: 742c fdbc d7fb 52bc 955b e4bc f70d 8dbc
00000100: 7e21 a6bc 560e 4dbc 9198 0cbb 5ff0 0d3d
00000110: 8378 25bb a9c7 923c 7db3 863c 0fde 17bc
00000120: 1403 8abc c00b 59bb 9fd0 ef3c 800e 09b9
00000130: be42 04bd 7d29 963d 0a0a d73b b8db 2ebd
00000140: c6be 963c 3ae9 febc c5c5 f83b 97b3 363c
00000150: 6269 bdbc ea86 1abc e564 0d3d e37c 26bd
00000160: 48fb c6bc dee6 cd3c c2b2 ccbc a5d9 123d
00000170: b6f4 0dbc 6257 df3c 11be 0bbc 0d9c bfbc
00000180: 0313 a6ba 6ccb cb3c ef55 aabb a50a 3d3c
00000190: 45b0 91bd 5d8c 113c 3de1 e8bc ed47 74bb
000001a0: 0530 6b3d 1794 bdbc 7522 1cbb 0765 a13c
000001b0: bb8a 8e3c 75b8 463c 07b4 e5bb d7e8 6e3d
000001c0: 1796 52bc c581 e3bb f4ba 22bc ad34 edbb
000001d0: ab8d e339 7799 a93d dfe1 6c3b 3538 863b
000001e0: e789 51bd bfd7 24bd 147e 123d ccac 6f3c
000001f0: e1f7 34bc c1e3 693c fdf3 7f3c 67ce d03c
00000200: bfce f2bc 1c23 133c 622c 083d 537f a5bc
00000210: 3455 123b 1c0a 063d 47a5 913d 3521 d1bc
00000220: 51b0 403d 2a85 193d ffaa 8d3c 63db 95bb
00000230: b450 5abc 48bd 893d 6e3e ecbc 0ec4 c23b
00000240: 1761 73bc d6cd bf3c cde5 2d3c 89ae 4c3c
00000250: ea4b 3fbc e1fc 603c 5e18 693d e8d0 7b3c
00000260: 74c4 35bd 2230 d8bb 56e6 05bb 09f9 153d
00000270: b6e0 a8bb c725 7dbb 8c1a a5bc 44b5 ba3b
00000280: 3239 3ebd 5d92 27bd e8a7 a33b 76ea 233d
00000290: 1af0 c2bb 8aec cb3c b7ae 6cbd aed8 70bc
000002a0: 3037 423d dfd4 c3bd dc23 95bc 981f 7d3c
000002b0: 485c a93c 175d a6bc 0e55 87bb e63a 083d
000002c0: f016 973d 3c8e d7bc ec08 ba3d c993 0f3d
000002d0: b38e ce3d e598 24bd eb94 7a3c a03d a8bd
000002e0: a87e a0bd 2cf9 103b 642f 17bb 9448 22bc
000002f0: 47fb dc3c e94b edbc cb79 0b3e a5b9 9c3c
00000300: 3932 ecbc 9aec fdbc b215 703b e5e4 373d
00000310: d9bd 22bd b1cd 68bd af4c 123d 0379 a2bd
00000320: 94e6 173c fa79 a33b c8f5 ec3c 1d33 94bc
00000330: 3b70 913c 522e e6bc b358 14bd fe78 f0bc
00000340: 75f3 ad3b 141c 153d 6c25 013d 299c b0bc
00000350: 3509 e6bc f0c2 b53c 66a7 59bd dffd 8b3b
00000360: 35d0 123c f995 51bc 2a1b 6b3d 682d 4fba
00000370: c487 143c b69d bdbc 0a83 9239 2b8e 12bb
00000380: 386c c4bc 7544 9a3c 92f5 8e3b f7cb ba3c
00000390: 3fac 62bc eac8 e3bb 1de6 703c 448e b73c
000003a0: 6479 1c3c 2a4c 53bc f4b4 853d 93e3 413c
000003b0: b20c 023c 5768 cb3c e0d6 5bbc 29ae 213d
000003c0: fabf 8ebc c958 b1bb ac5e d2ba 03cf 153d
000003d0: 0f28 f4bc ce05 a9bb 8664 2bbc b739 a8bc
000003e0: 701d 84bc 63ad 6ebc 3be5 003c 15fc bdbd
000003f0: 19a8 173d 9ace 6f3c 7960 6dbb 93c3 3a3c

fc.bias f4 [2]
-0.03440184 -0.008433401
00000000: f2e8 0cbd 3f2c 0abc
